mumax3/Stray field resources/stray_field_v11_FeCo_5_5_DMI_Stack.out/B_demag_75mT_10K_FeCo_5_5_7stack_layer10.npy (npy, 524416 bytes, 1 tensors)

array f8 [256, 256]
00000000: d57f ad7d c711 aa3f 29d5 57ba 2f25 aa3f
00000010: 798d 49be 93c8 aa3f 0967 c4c0 cbf0 ab3f
00000020: f511 cd43 738b ad3f 5fe2 1b4c bb7f af3f
00000030: c667 78d4 14d8 b03f 7136 e355 52fe b13f
00000040: caf4 7443 8d21 b33f c9e7 f440 542f b43f
00000050: 56a2 8903 2a14 b53f 115e 76e0 80bc b53f
00000060: 53bf a0bf af15 b63f 81b1 be81 c90d b63f
00000070: 7020 ea5f 0e92 b53f 48e7 15b2 678d b43f
00000080: 4a4d f543 f0e8 b23f c5b0 606e 398f b03f
00000090: e9f0 10c6 4fe3 aa3f f061 15c0 ab1d a33f
000000a0: d397 0b80 e4e2 933f 7929 8f00 382b 44bf
000000b0: 9aa9 6947 0c63 96bf d292 2cff d826 a6bf
000000c0: 412d a3e4 1756 b0bf 2643 4420 4d2b b5bf
000000d0: 12d3 cfe5 176f b9bf 21bd 3940 560e bdbf
000000e0: b4c3 6704 7e01 c0bf 513f 1ce2 2727 c1bf
000000f0: ef26 cf27 b8f9 c1bf de0e c3fd 367a c2bf
00000100: b7a9 aa65 a5a8 c2bf 5ae0 2349 ad83 c2bf
00000110: ecef 7400 2708 c2bf edc2 c540 8d31 c1bf
00000120: 356a b120 3cf6 bfbf b6bf b33d 7ac3 bcbf
00000130: 22c1 7541 54cc b8bf f07e 05fe 2a1f b4bf
00000140: 13e9 495c 71b8 adbf a7b4 7a5e 5c70 a2bf
00000150: 687a 00c0 eeca 8bbf 5851 9a05 8e8f 803f
00000160: 4eaa 50b9 9684 9c3f 302b 5bbe 0afd a63f
00000170: a991 af67 7c1d ae3f 4712 efc6 a3d0 b13f
00000180: f950 dcd0 18d6 b33f d76a cd5e cf3a b53f
00000190: b544 78c5 9d1c b63f dd11 047e 4397 b63f
000001a0: 6db4 3585 42c2 b63f 4ab7 c247 06b1 b63f
000001b0: 7783 68ad 6873 b63f be06 4740 ba15 b63f
000001c0: 0184 b46b e7a0 b53f da7a 7eff 831b b53f
000001d0: c8d0 49a0 d58a b43f 6577 7921 baf3 b33f
000001e0: 28cb 3eff a55b b33f eb4b 3e8f b4c8 b23f
000001f0: 32e4 405e fb41 b23f d5a7 e2e7 3bcf b13f
00000200: f586 3574 3778 b13f c4cb 7800 3043 b13f
00000210: 5d68 11fe 0334 b13f 7e38 8aa4 c44b b13f
00000220: 9454 9e27 3b89 b13f 1dee 3c54 c7e8 b13f
00000230: b5ba 6267 8664 b23f dc70 0e8d ddf4 b23f
00000240: 9af7 ee45 6a90 b33f 26a2 04a2 cc2b b43f
00000250: 4765 f5d4 0bba b43f 6430 b1bf 0d2d b53f
00000260: 5b46 fe21 7c76 b53f c1b3 5617 6489 b53f
00000270: 0160 8610 a15b b53f 026c bc4b 14e7 b43f
00000280: 2e9d 88de df29 b43f 3b0a a569 2f26 b33f
00000290: 7efd 5237 fee1 b13f 9bb3 ef9e c466 b03f
000002a0: 8575 a932 0883 ad3f 82ea e2e0 1907 aa3f
000002b0: d503 283e 2584 a63f 9d31 5243 a92a a33f
000002c0: 202a 7143 aa2d a03f e960 fd9f c37c 9b3f
000002d0: f215 2198 4a0f 983f 6a54 7d3a 604f 963f
000002e0: 9498 b1b2 c755 963f 3bdc ffe1 5d17 983f
000002f0: 35a5 5f9c a46b 9b3f 19c5 26bd 650a a03f
00000300: 7b32 46be 27e3 a23f 76e3 ecbc de14 a63f
00000310: 463c 62bf ea72 a93f 1340 d13f 38d4 ac3f
00000320: 2fe8 d6ce a40b b03f f17f 6862 9191 b13f
00000330: a57d 9cfe 26f3 b23f 4d43 7d60 012b b43f
00000340: 6a31 dbc2 b136 b53f 2c30 9e20 3516 b63f
00000350: 3ddf c3e3 aacb b63f b472 714c fd59 b73f
00000360: c2f4 41bf 84c4 b73f b581 01a5 1d0e b83f
00000370: 0bf5 70d9 5338 b83f 31ba 590f a142 b83f
00000380: ac61 548c d229 b83f 63b3 86ff 32e7 b73f
00000390: 081a d8cf 0770 b73f b06d b490 3eb5 b63f
000003a0: 093b de47 e2a3 b53f 2f04 ce8c 5d26 b43f
000003b0: 57fe a021 2826 b23f 7609 da26 0d1c af3f
000003c0: 1204 587c f49a a83f 0fca b262 e3ba a03f
000003d0: b964 ad85 7f2f 8e3f d7b5 4987 7fbf 75bf
000003e0: e91d aea2 2d51 9bbf 1b9b 0e7e 91b9 a8bf
000003f0: ca80 c0be 2ea7 b1bf 405e 9bcf b16a b6bf
00000400: 4f20 4f3f 666f babf 2726 fb29 8692 bdbf
00000410: 69d7 105e b3c3 bfbf ae71 ec8f e67e c0bf
00000420: e0e3 e177 b29f c0bf 063d a3c6 e742 c0bf
00000430: 2208 6722 32cd bebf 86d1 62df 0415 bcbf
00000440: 0e24 f78d 1268 b8bf 3879 94c1 86e4 b3bf
00000450: 8748 552c e17d adbf 29a2 f4bf 3b7d a2bf
00000460: ed85 ca0b 259d 8dbf 130c 700c c45c 793f
00000470: 34a9 3672 bc86 993f a50c 7a41 d415 a53f
00000480: 95d8 3185 3907 ac3f 3595 c999 bbd0 b03f
00000490: 23f2 239f d303 b33f 26eb 47f5 63b4 b43f
000004a0: 07bb 9b86 2cfb b53f 4244 28be f3ee b63f
000004b0: 0177 b030 0aa3 b73f ad98 9d87 0b27 b83f
000004c0: 28c1 f252 7786 b83f 2246 5bd7 60c8 b83f
000004d0: ceba 0c20 f8ef b83f 02a2 bb7f 87fd b83f
000004e0: 7aa9 b78a eeee b83f 6b1b f3f8 c5be b83f
000004f0: e06d 7b0e 6e63 b83f a037 b27e 75cd b73f
00000500: 8530 f6df fce6 b63f cf66 3812 2694 b53f
00000510: 5850 25be 6bb4 b33f 2381 01e2 8026 b13f
00000520: 3680 b941 ad9c ab3f f4bd 2b27 463b a33f
00000530: 1f95 3f38 cf73 923f c019 50fd f0e4 70bf
00000540: 14e1 12bf e38d 9cbf 2c7e 5358 a9a0 aabf
00000550: b43e 4052 9f3f b3bf 43fd f4c0 43a8 b8bf
00000560: ada3 0d34 5d57 bdbf f2d4 5db8 f799 c0bf
00000570: a879 e0c6 da1d c2bf 8b69 09a6 583d c3bf
00000580: 987c bb3e d600 c4bf fcb4 4071 b66f c4bf
00000590: 41a5 4223 758e c4bf 2ab2 10fc f35d c4bf
000005a0: 7118 2f8a dcdb c3bf b4a4 eda9 e603 c3bf
000005b0: 81be 04d9 78d1 c1bf 525b 13a0 e041 c0bf
000005c0: da2a 9863 3fac bcbf 7885 f4ca ab29 b8bf
000005d0: 6bb2 2da0 a317 b3bf 2602 56c0 9d41 abbf
000005e0: d4b4 65a2 03f0 9fbf 1b2f c688 902f 83bf
000005f0: 5b43 fa04 8836 873f e890 1860 c6e4 9e3f
00000600: 874d a602 d5dc a73f f67c cd72 d9e8 ae3f
00000610: 20fe edf4 7b49 b23f bf6e e3df ff78 b43f
00000620: aeee dca4 3716 b63f 0285 38de 3636 b73f
00000630: 679f 01d4 58eb b73f 7aef 1c88 3443 b83f
00000640: a747 2abe 6745 b83f c653 73df 88f3 b73f
00000650: 5169 e021 6e49 b73f dc98 69be f43d b63f
00000660: c853 c16e f9c4 b43f 2094 7baa d8d2 b23f
00000670: d203 dd66 4361 b03f 08fa f29f c1e8 aa3f
00000680: 91ce ee00 b73d a43f 5eb1 af0a 0e0e 9a3f
00000690: cbd8 5e78 169e 863f c85c f6fb e7e8 66bf
000006a0: c6bb 19f1 4128 8fbf af64 27b9 4c18 9abf
000006b0: d8b8 bc41 cdf3 a0bf d938 acba 5862 a3bf
000006c0: 6d1f 01c2 d859 a4bf e5e6 4ec2 e2f6 a3bf
000006d0: e535 4ec1 1c68 a2bf bf81 f9c6 38c8 9fbf
000006e0: 3c47 68f4 3846 99bf 32f1 1ed2 35b4 91bf
000006f0: 0551 d13a a5e1 82bf 0d3a a6fd b3b4 49bf
00000700: 7b67 1e83 08c6 7f3f b460 b910 7194 903f
00000710: 50fc f764 eeef 983f 1bef 12c5 7972 a03f
00000720: 15ff b960 5730 a43f a965 a8e0 a9ad a73f
00000730: f863 41fe 25eb aa3f bbc2 7b41 1dec ad3f
00000740: fe54 2646 e059 b03f 6524 10e9 96a1 b13f
00000750: d155 fcd7 a0cc b23f 0f55 63cf bfd9 b33f
00000760: 37ff d048 5bc7 b43f 9ea2 3c56 9d93 b53f
00000770: 0fe1 ebad 793c b63f eefc cb83 2ec0 b63f
00000780: 513e b10c 791d b73f 3870 2087 3553 b73f
00000790: 8bab a9b0 425f b73f 3d3f 5265 943e b73f
000007a0: d78b 3e72 adee b63f f6d2 1401 4e6f b63f
000007b0: 2aae e8de dcc2 b53f 0eaa 47f9 cded b43f
000007c0: 6364 8700 f9f5 b33f 6226 f675 85e3 b23f
000007d0: bb37 54c6 9ec1 b13f f33d 0203 319e b03f
000007e0: f343 35bd 7512 af3f eb3e c8fe ee27 ad3f
000007f0: abcc ba9d 829e ab3f 5056 c581 7b91 aa3f
0.050916895 0.05106496 0.052311532 0.054571502 0.057704546 0.06152139 0.06579714 0.07028689
0.07473071 0.078847185 0.08233893 0.084907584 0.08626841 0.086147875 0.08425989 0.08028267
0.07386686 0.06468543 0.0525155 0.037335746 0.019420214 -0.00061550364 -0.021862213 -0.043265134
-0.06381368 -0.082691975 -0.0993514 -0.113500014 -0.12504554 -0.13400744 -0.14043333 -0.1443547
-0.14577167 -0.14464346 -0.14087379 -0.1343247 -0.124850996 -0.11235775 -0.096867815 -0.078600585
-0.058047812 -0.036013495 -0.013570657 0.008086309 0.027849536 0.044899307 0.05881871 0.06958984
0.07748561 0.08292862 0.08637415 0.0882456 0.08890167 0.08863868 0.0876985 0.086269036
0.08448645 0.082451105 0.080243446 0.07793773 0.075617194 0.07337502 0.071319304 0.06956839
0.06824061 0.06743145 0.067199945 0.06756238 0.06850023 0.06995817 0.07184639 0.07404885
0.07642235 0.078793325 0.08096384 0.082718715 0.083839186 0.08412767 0.0834294 0.08165099
0.078763954 0.07480141 0.06985463 0.064068116 0.05764032 0.050835427 0.04397694 0.037434854
0.031598397 0.026843125 0.023495832 0.02178717 0.0218116 0.023526637 0.026777813 0.031329326
0.036889307 0.043127976 0.049704872 0.056306608 0.06267767 0.06862744 0.07402271 0.07878121
0.08286582 0.08627636 0.08904522 0.09121688 0.092842385 0.09396539 0.09460949 0.09476668
0.09438816 0.09337157 0.0915532 0.08870307 0.08453192 0.07871041 0.070894726 0.06076089
0.048057213 0.032675844 0.014739033 -0.00530958 -0.026676858 -0.048290774 -0.068957254 -0.08756553
-0.10326232 -0.11551703 -0.124079905 -0.1288727 -0.12987357 -0.12704179 -0.12031854 -0.109695725
-0.09533802 -0.077705786 -0.05760101 -0.036111705 -0.014459886 0.006191984 0.02492804 0.041182168
0.05474262 0.06568501 0.07427714 0.08087754 0.08586386 0.08958362 0.09233154 0.09434578
0.09580179 0.09680753 0.09741164 0.09761855 0.09739581 0.09666097 0.09526718 0.092978805
0.089462094 0.08429182 0.076971754 0.066993766 0.053929724 0.0375616 0.018019903 -0.0041245855
-0.027885016 -0.052007 -0.07518955 -0.096317515 -0.11461432 -0.12969872 -0.14153609 -0.15030964
-0.15627554 -0.1596592 -0.16059746 -0.15911722 -0.15514714 -0.14855655 -0.13920508 -0.12701042
-0.11200329 -0.09438585 -0.074579455 -0.053234987 -0.031189019 -0.009368066 0.011334479 0.030169582
0.04660669 0.06037025 0.07143378 0.079971306 0.08627651 0.090670995 0.09343486 0.09477547
0.09480904 0.093559794 0.090964206 0.086882874 0.08113059 0.07352976 0.06398412 0.05255704
0.039533347 0.02544424 0.011043716 -0.0027966052 -0.015213504 -0.025483321 -0.03311006 -0.0378597
-0.039747976 -0.038992964 -0.035950564 -0.031037223 -0.02468194 -0.01728901 -0.009219447 -0.00078448094
0.0077572186 0.01619126 0.024352765 0.03212338 0.039431315 0.046246823 0.05257529 0.058442034
0.0638714 0.06887191 0.07343488 0.07754134 0.08116694 0.08428367 0.08686028 0.08886996
0.09029347 0.09111342 0.09129731 0.09079864 0.08957943 0.087635875 0.08500462 0.08175361
0.077971995 0.0737842 0.06936066 0.06491381 0.060687713 0.056945294 0.053943712 0.051891193
