mumax3/Stray field resources/stray_field_v11_FeCo_5_5_DMI_Stack.out/B_demag_125mT_10K_FeCo_5_5_7stack_layer10.npy (npy, 524416 bytes, 1 tensors)

array f8 [256, 256]
0.03326615 0.03298666 0.03270347 0.032424785 0.03215148 0.031880282 0.031613078 0.03136087
0.031133147 0.03093491 0.030770589 0.030651297 0.030596461 0.030628167 0.030756917 0.030969582
0.031230323 0.031489093 0.03168494 0.031748522 0.031600576 0.03115353 0.03031379 0.02897476
0.027006768 0.024243128 0.02050199 0.015637858 0.009625542 0.002644544 -0.004873967 -0.012267405
-0.018743316 -0.023528187 -0.026013687 -0.025850417 -0.023004226 -0.017779866 -0.010793641 -0.0028652549
0.00515439 0.012561707 0.018908696 0.024011048 0.027888052 0.030687552 0.03262083 0.033910166
0.03476007 0.035339095 0.03577415 0.036155537 0.0365436 0.036976654 0.037481252 0.038073998
0.038756516 0.03951148 0.040308774 0.041118134 0.041916415 0.042685226 0.04340384 0.044034045
0.044506773 0.04470675 0.044455327 0.043509573 0.04156838 0.038272314 0.033205416 0.025909916
0.015941955 0.0029529221 -0.013194885 -0.032310072 -0.053789977 -0.076644115 -0.099650264 -0.12159324
-0.1414911 -0.1587276 -0.17307277 -0.18460688 -0.19360176 -0.20040914 -0.20538366 -0.20883235
-0.21099225 -0.21203363 -0.21205829 -0.21108307 -0.20902634 -0.20571268 -0.20088482 -0.19421405
-0.18532613 -0.17385474 -0.15953961 -0.14235784 -0.12263301 -0.101065494 -0.07865375 -0.0565265
-0.035733506 -0.017068682 -0.0009834357 0.0123864515 0.023144554 0.031553075 0.037962385 0.0427497
0.046272494 0.048830662 0.05065673 0.051916234 0.05272948 0.05319623 0.05340819 0.05345531
0.053418946 0.053361204 0.0533239 0.05332397 0.0533499 0.053363416 0.053294033 0.05305119
0.052536212 0.051648054 0.050270986 0.048266903 0.045469258 0.041694976 0.036761593 0.030506026
0.022808759 0.013619801 0.0030026818 -0.008829694 -0.02149186 -0.034449674 -0.047069263 -0.058694817
-0.06870947 -0.07657997 -0.08188747 -0.084358394 -0.08386819 -0.08044901 -0.07427768 -0.06566
-0.0550164 -0.04286992 -0.029827897 -0.016553571 -0.0036969436 0.008192213 0.018729715 0.027718628
0.035133578 0.04108505 0.045760974 0.049372867 0.05211523 0.05415467 0.055632956 0.0566736
0.057375412 0.057816207 0.058062397 0.058175683 0.058217593 0.058245976 0.058309924 0.058442976
0.05866087 0.05896285 0.05932933 0.05972088 0.06008452 0.060370553 0.06054585 0.06059094
0.060486246 0.060186356 0.059590153 0.0585214 0.0567263 0.05389484 0.04968182 0.043714393
0.03561023 0.025014985 0.011687132 -0.004381912 -0.022858325 -0.043031447 -0.06389422 -0.08432619
-0.10329833 -0.12002434 -0.13401064 -0.14502573 -0.15302885 -0.15808153 -0.16026235 -0.15960634
-0.156078 -0.14959072 -0.14006387 -0.12752089 -0.11219302 -0.09459872 -0.075546704 -0.056047417
-0.037148118 -0.01975701 -0.0045086592 0.00828366 0.018594503 0.026605606 0.032618344 0.036972888
0.03999632 0.04197254 0.043131016 0.04365547 0.043690484 0.043350168 0.04273023 0.041919965
0.041016452 0.040114284 0.03929395 0.038607303 0.038063083 0.03763403 0.037276372 0.036953177
0.036641218 0.036326814 0.036004364 0.035671905 0.03534104 0.035039827 0.034800954 0.03463618
0.03453249 0.034460884 0.034387846 0.034289524 0.03415299 0.03397769 0.03376861 0.03352952
00000000: 61ae a0c4 4208 a13f a8fc cea3 a0e3 a03f
00000010: 463f 3b5c 82be a03f 0e46 4f3e fb99 a03f
00000020: 3f6a 3ca6 2876 a03f 4b8e 27c1 9c52 a03f
00000030: 4e94 45e0 962f a03f d257 0c2e 880e a03f
00000040: b809 bf20 5ee1 9f3f f5d0 04ab 66ad 9f3f
00000050: ac10 bc45 5382 9f3f 9aa9 c7b8 0d63 9f3f
00000060: fa2d 79bd ad54 9f3f 55dc 677e fd5c 9f3f
00000070: 522a 90c2 bd7e 9f3f 0173 7177 7db6 9f3f
00000080: 0fcd b67f d7fa 9f3f 5d3d 3ba1 561f a03f
00000090: 11c5 262a 0239 a03f 8067 5f9f 5741 a03f
000000a0: a1d6 e860 f32d a03f e412 0502 b6e6 9f3f
000000b0: ded6 ab02 940a 9f3f 6313 703a 8fab 9d3f
000000c0: 5c98 5285 a9a7 9b3f cfa5 a6c7 30d3 983f
000000d0: 6930 3642 79fe 943f 2f0a c2e2 5e03 903f
000000e0: 882b c560 8eb6 833f c349 c5bf 02aa 653f
000000f0: 1858 de8d b9f6 73bf 7b19 413a a71f 89bf
00000100: dd51 f4a4 7231 93bf d6f3 cbe6 c517 98bf
00000110: 2e4d a7fb 54a3 9abf fc6e 691e 8878 9abf
00000120: abf2 5b79 6b8e 97bf 5632 fd9b e234 92bf
00000130: 7451 ccf8 f91a 86bf faf2 e202 e078 67bf
00000140: 367a b107 c51c 753f adb8 f9c5 f3b9 893f
00000150: 7f53 b81b cd5c 933f c659 9c27 5a96 983f
00000160: 4116 287d af8e 9c3f 2eec efc0 8e6c 9f3f
00000170: 8a68 096c adb3 a03f f5a0 f15b ac5c a13f
00000180: 8b9d b667 12cc a13f 5229 9742 f717 a23f
00000190: 079b 9548 fd50 a23f 86f8 f781 fa82 a23f
000001a0: 0f97 c1bd d7b5 a23f f87f 4a9f 9aee a23f
000001b0: 7534 1b1f be30 a33f 20d7 7960 6f7e a33f
000001c0: 552c 74e1 e4d7 a33f 1a47 d544 d93a a43f
000001d0: 31ca 2404 5aa3 a43f 44e7 9aa1 6f0d a53f
000001e0: 625e 2e7f 1176 a53f 2d7e 6283 d6da a53f
000001f0: 1442 a432 0739 a63f f505 5f5e a18b a63f
00000200: e892 f87c 97c9 a63f 3e26 529a cde3 a63f
00000210: 322b 323f d9c2 a63f 2d23 3202 e346 a63f
00000220: 669f 4b61 7348 a53f d4c9 f1c1 6d98 a33f
00000230: 4a47 8adf 4c00 a13f 37cc 7207 2188 9a3f
00000240: 4eed 6f7d 1653 903f 34bc 1bfb b930 683f
00000250: 4656 657c eb05 8bbf 3d8f 241d f28a a0bf
00000260: 729b 2220 5c8a abbf d719 5bdf f29e b3bf
00000270: b9f2 ea00 ae82 b9bf 35f5 360d bc20 bfbf
00000280: 8d68 965f 611c c2bf 297d 7c9d 2f51 c4bf
00000290: 5c33 7d9f 3f27 c6bf 6fb9 1bc0 32a1 c7bf
000002a0: 02f3 d245 f1c7 c8bf 4d4b 0fb7 01a7 c9bf
000002b0: a598 6a03 034a cabf c864 ccb8 04bb cabf
000002c0: 74cf ba46 cb01 cbbf ed46 4001 eb23 cbbf
000002d0: c5a5 32de b924 cbbf e3d3 3121 c504 cbbf
000002e0: d5ba 2607 60c1 cabf 517b 7c08 cb54 cabf
000002f0: 29d8 1402 98b6 c9bf 173c 9688 01dc c8bf
00000300: 01dd b841 c4b8 c7bf 94fc 4643 df40 c6bf
00000310: 92ec ae3f cb6b c4bf a689 901d c838 c2bf
00000320: a52b 5c7f e064 bfbf f2ec 7b9f 6ddf b9bf
00000330: c22f f5f3 a622 b4bf cbf5 b699 0af1 acbf
00000340: 2c68 487f a94b a2bf 603e e7db 737a 91bf
00000350: 5f7b d40a d41c 50bf 5c11 d960 115e 893f
00000360: 15c2 0aba 34b3 973f 2a2d 6d82 b927 a03f
00000370: ea37 1b44 ce6f a33f 10df d3e6 49e3 a53f
00000380: f063 de40 07b1 a73f d4ff a920 5500 a93f
00000390: fa37 58cd adef a93f efad 52be c394 aa3f
000003a0: 012a 45c0 5bff aa3f 66b1 3d48 893c ab3f
000003b0: 95f0 c67a 5158 ab3f cbbd 7e90 7e5e ab3f
000003c0: 9513 1d64 ba59 ab3f 2141 1ce4 2852 ab3f
000003d0: b3ba 302d 454d ab3f 705b 7c86 474d ab3f
000003e0: a75f 7d97 ad50 ab3f 18b2 0b1d 7352 ab3f
000003f0: dd27 9d01 5b49 ab3f 2cb5 208c 8629 ab3f
00000400: 2c9c cac0 06e6 aa3f 6801 aa1d 9d71 aa3f
00000410: 6d87 9d61 1ebd a93f fc78 ba83 70b6 a83f
00000420: 9eb1 2a20 bf47 a73f b9ae a73c 0b59 a53f
00000430: 3b23 5e5f 6ad2 a23f aaf2 00c0 f83c 9f3f
00000440: dd8f dee7 2d5b 973f 28f6 fbbe b2e4 8b3f
00000450: 5790 3384 1499 683f c1a1 b577 4d15 82bf
00000460: b822 524f f601 96bf 622f 603e 63a3 a1bf
00000470: 7cb1 7662 7619 a8bf 6f5e eb3e 3f0d aebf
00000480: 8453 939e f196 b1bf bcbc adb2 be9a b3bf
00000490: 8b28 9ac5 93f6 b4bf 5882 5fff 8298 b5bf
000004a0: df86 39bd 6278 b5bf 5511 f26a 4e98 b4bf
000004b0: 8f39 6cae dc03 b3bf acc5 a700 18cf b0bf
000004c0: 45c0 7c0d 1c2b acbf 5fa7 c3d0 0bf3 a5bf
000004d0: 626b 7e48 348b 9ebf c3dc 4e58 6bf3 90bf
000004e0: 7bd3 6d7b 0d49 6ebf debd 5537 14c7 803f
000004f0: e6b8 8de5 e12d 933f 59fd ffa2 4562 9c3f
00000500: 08c0 0041 07fd a13f 4684 3584 1909 a53f
00000510: dfb5 867d fb6d a73f a246 2682 6647 a93f
00000520: f670 f2f0 d8ae aa3f 86be 2631 29ba ab3f
00000530: e619 333d ec7b ac3f 11da 1775 5204 ad3f
00000540: 96e0 445c 4f60 ad3f efce 7cfc 159a ad3f
00000550: ba17 7cc0 5aba ad3f 039f d0ff 33c9 ad3f
00000560: e642 f943 b2ce ad3f db52 16a4 6ad2 ad3f
00000570: 3e78 3961 ccda ad3f dbaa 33dd 3cec ad3f
00000580: a3e9 682c cc08 ae3f ce9f dbf0 6030 ae3f
00000590: a651 16f8 6960 ae3f c307 fa34 bc93 ae3f
000005a0: e4ad caf0 65c3 ae3f d988 8d9d e3e8 ae3f
000005b0: be29 519b ddff ae3f 83c1 7793 c605 af3f
000005c0: 050a dba0 0df8 ae3f 81ee 5efd bed0 ae3f
000005d0: dbe6 98bc 9982 ae3f f875 3b56 84f6 ad3f
000005e0: 5f6b a5c6 3a0b ad3f 1041 72be 1a98 ab3f
000005f0: 0226 3640 e56f a93f ed56 99a0 bb61 a63f
00000600: 358e 810a 813b a23f a391 f039 879d 993f
00000610: e6d2 ca4d 6cef 873f 4e42 be8b c4f2 71bf
00000620: 6cee 4339 2c68 97bf a80d 21c3 3708 a6bf
00000630: 88ad 4d21 5f5b b0bf 5a0c 3fb4 6696 b5bf
00000640: a8d7 1465 c271 babf db23 0647 eab9 bebf
00000650: 0dda 0eba 4227 c1bf f1d9 b6ff 3390 c2bf
00000660: 3c18 0c09 7396 c3bf 6fcf b9fc 033c c4bf
00000670: 80da 0308 7a83 c4bf 8662 4405 fb6d c4bf
00000680: e202 d028 5dfa c3bf 22b1 17e9 c925 c3bf
00000690: 2d27 80e6 9ced c1bf 10ac 0dc2 9a52 c0bf
000006a0: 2a4e bd87 aeb8 bcbf deb9 a428 9f37 b8bf
000006b0: d326 005f 0757 b3bf da9e 143e 3fb2 acbf
000006c0: 67fd d5ff 1305 a3bf ca58 447f 2e3b 94bf
000006d0: 8f44 01fd ab77 72bf f157 5406 06f7 803f
000006e0: e4dc 14f9 6f0a 933f 8f1b a4fe 7f3e 9b3f
000006f0: 5598 7501 5ab3 a03f 63eb 9841 1cee a23f
00000700: e47f b8cc 657a a43f 2896 42bd 6c7d a53f
00000710: dd95 53be 4415 a63f 7c0d e27f 025a a63f
00000720: 9452 da5f 995e a63f 0d16 ac43 fe31 a63f
00000730: f315 cd98 bce0 a53f 07ed 729d 8876 a53f
00000740: 7b3b e0bf 1b00 a53f 48d1 c303 dc89 a43f
00000750: 5d7f 5c2c 561e a43f 7b24 8b1f 56c4 a33f
00000760: 8801 5721 017d a33f 4224 2280 c444 a33f
00000770: 809b 4e7d e315 a33f 7f87 65dd 86eb a23f
00000780: 24c0 fd41 a3c2 a23f aa1c 329c 6d99 a23f
00000790: f65b c9fb 296f a23f 77d7 b882 9643 a23f
000007a0: b964 0386 3818 a23f d584 0b7e bdf0 a13f
000007b0: 3965 993e 6ed1 a13f 2e7c b758 d5bb a13f
000007c0: ec1d 6616 3eae a13f 3ce1 8a63 dba4 a13f
000007d0: 4057 e6a3 489b a13f f6ce 5980 658e a13f
000007e0: 89a2 382e 807c a13f c7ef af16 8665 a13f
000007f0: 73aa 2987 1e4a a13f f37e b3ff c72a a13f
