mumax3/Stray field resources/stray_field_v11_FeCo_5_5_DMI_Stack.out/B_demag_125mT_10K_FeCo_5_5_7stack_layer7.npy (npy, 524416 bytes, 1 tensors)

array f8 [256, 256]
0	0x3fa464da752bfc07	0.03983195
1	0x3fa3b7b8be77f55a	0.03851106
2	0x3fa3aea03bf523ae	0.038441665
3	0x3fa2e337bfac4a43	0.036889784
4	0x3fa36aafdd6404f3	0.037923332
5	0x3fa3111d08cf5c74	0.03723994
6	0x3fa204ace2f7868a	0.03519192
7	0x3fa2586876e1dead	0.03583075
8	0x3fa289c5662624ad	0.03620736
9	0x3fa1c690617b5ee0	0.034718048
10	0x3fa11689037453ba	0.033375055
11	0x3fa13f4d83fd8c44	0.033686087
12	0x3fa0df14f8e07c01	0.03295198
13	0x3f9f92b966cfa906	0.030833146
14	0x3fa0991680b9bd95	0.032417968
15	0x3fa15039422fbf24	0.033815183
16	0x3fa22568c53b5dfa	0.03544166
17	0x3fa305367e49e585	0.037149146
18	0x3fa4738d406fdcb2	0.03994409
19	0x3fa54a9b03d1f1a5	0.04158482
20	0x3fa6b729bc2ad7df	0.044366173
21	0x3fa86f28bdf57fb0	0.047723077
22	0x3fa8a5b07e37936a	0.04813911
23	0x3fa8797ef1f8805a	0.04780194
24	0x3fa844264a977de1	0.04739494
25	0x3fa7163aa9f5067d	0.04509147
26	0x3fa515953d94601f	0.04118029
27	0x3fa170dade88610d	0.03406414
28	0x3f8f073dfba7f063	0.015150532
29	0xbf92a0f2061fdd49	-0.018192083
30	0xbfaf771a01a2b134	-0.061455548
31	0xbfbc56e9c6ada3e8	-0.11070119
32	0xbfc39d83c978af69	-0.15324447
33	0xbfc795eeffa79586	-0.18426311
34	0xbfc97e90ff972474	-0.199175
35	0xbfc9f9c85873df76	-0.20293526
36	0xbfc83304e5171b7b	-0.18905698
37	0xbfc3cd531a03615e	-0.15470351
38	0xbfbbb5a7ed19736f	-0.1082406
39	0xbface81d01bae28c	-0.056458384
40	0xbf83dbdd721cb92f	-0.009696703
41	0x3f95ef005361fcca	0.02141953
42	0x3fa3e0884080ce9d	0.03882242
43	0x3fa7a9322425b557	0.046212737
44	0x3fa8f716217f8195	0.04876012
45	0x3fa99274fbef3e00	0.049945503
46	0x3fa988d7c43b728c	0.049872153
47	0x3fa8e178557c3357	0.0485952
48	0x3fa7645a3f082001	0.045687504
49	0x3fa60a467fec1e77	0.043047145
50	0x3fa520d790f60703	0.04126619
51	0x3fa4d05b4415d0ef	0.040652134
52	0x3fa5644baf000839	0.04178082
53	0x3fa6b021c64e587e	0.04431253
54	0x3fa5eed69e1814b0	0.042837817
55	0x3fa463b48558440f	0.03982319
56	0x3fa6f73cb7ec4005	0.04485502
57	0x3fa89c587f8cc1df	0.048067823
58	0x3fa906b5c085857f	0.048879318
59	0x3faaf9dcbf220324	0.052687548
60	0x3faba78ecfbc156f	0.05401274
61	0x3fabd1ebbcf45f04	0.054335944
62	0x3fae61e2fc979e4a	0.059340566
63	0x3fb00fa3362580ee	0.06273861
64	0x3fb09c0b63e150e8	0.06488105
65	0x3fb1ca1460b5218a	0.06948974
66	0x3fb369a02cb0b819	0.07583047
67	0x3fb48af917d9658c	0.08024556
68	0x3fb586a85040b527	0.08408596
69	0x3fb64dd9c16bb473	0.087125406
70	0x3fb73fd4d7325669	0.09081774
71	0x3fb7a1aebbeaa753	0.09231083
72	0x3fb5d017c12306a6	0.085206494
73	0x3fb23d9e1b338d20	0.07125271
74	0x3fa3a93cfab2384c	0.03840056
75	0xbf8b8f4a01ce2dc2	-0.013456896
76	0xbfb51e440dcbf084	-0.08249307
77	0xbfc4ac4cba17e956	-0.16150817
78	0xbfce1994bc0f3a5b	-0.23515567
79	0xbfd2ea7f653aed3c	-0.2955626
80	0xbfd59a84bb911033	-0.33755606
81	0xbfd6c0827c1baf5e	-0.35549986
82	0xbfd6f0173f36cc9b	-0.35840398
83	0xbfd70ba280480ee2	-0.36008513
84	0xbfd711d2fbbaf6e1	-0.3604629
85	0xbfd6a9727fa45001	-0.35409224
86	0xbfd668b2dc60be87	-0.3501403
87	0xbfd6595200d3ba7d	-0.34920168
88	0xbfd6577bfd5179f0	-0.34908962
89	0xbfd5deef799fff0e	-0.3417319
90	0xbfd5d2333e1aedc2	-0.3409546
91	0xbfd64ee6ede042cb	-0.3485658
92	0xbfd67bc61f08aed0	-0.35130456
93	0xbfd68d06c3e97956	-0.35235757
94	0xbfd6cf572078458c	-0.35640505
95	0xbfd73adec36f55f9	-0.36296815
96	0xbfd76e2c02925684	-0.36609936
97	0xbfd77866432af7fb	-0.3667236
98	0xbfd6f18a1b7754cb	-0.3584924
99	0xbfd4cc730ab99766	-0.3249786
100	0xbfd18564586f2cdf	-0.2737666
101	0xbfcaf6200253ed3d	-0.21063614
102	0xbfc18ea407b1a529	-0.13716555
103	0xbfb0701a195bc6a5	-0.06421054
104	0xbf737a8f7e92cc03	-0.0047555547
105	0x3fa060d6af79aabc	0.03198882
106	0x3faca3e928cdff7d	0.05593804
107	0x3fb2f9ef80e8031a	0.074126214
108	0x3fb5199324099f91	0.08242149
109	0x3fb6638738eedef0	0.08745618
110	0x3fb691cbc4e4f6e5	0.08816217
111	0x3fb68daf401efef4	0.088099435
112	0x3fb5f88a6ad286cb	0.08582368
113	0x3fb5700e411c9116	0.083741084
114	0x3fb5b946074b4ddc	0.0848583
115	0x3fb58b3cb49141b1	0.08415584
116	0x3fb47f09cb5adcc5	0.08006345
117	0x3fb40e9f3fa0d4cc	0.078348115
118	0x3fb2fa29c108623e	0.074129686
119	0x3fb20dde20427be2	0.070524104
120	0x3fb15d46821a76fa	0.06782952
121	0x3fb0b72f56afba17	0.06529518
122	0x3fb0864260080ea8	0.064548634
123	0x3fb08cb128d764ab	0.06464679
124	0x3fb0bc3c1fafb782	0.065372236
125	0x3fb1958df144d140	0.06868827
126	0x3fb3450ea7e38952	0.07527248
127	0x3fb3db0473015469	0.07756069
128	0x3fb3ec097e03102b	0.07782039
129	0x3fb44e81425fcbed	0.07932289
130	0x3fb528addea008f4	0.082651965
131	0x3fb55c17adf19559	0.08343647
132	0x3fb5d38ac18f81e9	0.085259125
133	0x3fb6ac964b866636	0.08857097
134	0x3fb7570347075081	0.09117146
135	0x3fb6f22373779bee	0.08963224
136	0x3fb5b3a23f96aa0c	0.084772244
137	0x3fb4369a70da07c9	0.07895818
138	0x3fb08f3fce771beb	0.06468581
139	0x3fa55da67950f9c3	0.04173012
140	0x3f8cad2dfe9e89a1	0.014002189
141	0xbf940edd687b6983	-0.019587955
142	0xbfaf5370843b5255	-0.061183468
143	0xbfb9d7049ea03ea4	-0.100937165
144	0xbfc28d1db5479ffd	-0.14493152
145	0xbfc73051d76328c4	-0.1811621
146	0xbfca350280b8cd11	-0.20474273
147	0xbfcc0a0c88cf71ee	-0.21905667
148	0xbfcbd7e2bffe324b	-0.21752581
149	0xbfc9808f47054d1c	-0.19923583
150	0xbfc5b3fb0442afd3	-0.16955507
151	0xbfc14839c0152e65	-0.13501665
152	0xbfb8daba204cd195	-0.09708751
153	0xbfabd49c9c4fcec2	-0.054356474
154	0xbf9104755aa009a0	-0.01661857
155	0x3f96528bc6a5c9dc	0.021799263
156	0x3faa01f5812993d6	0.050796196
157	0x3fb2039911b45d6a	0.0703674
158	0x3fb5b0f601a46fe1	0.08473146
159	0x3fb8580f35a80293	0.09509368
160	0x3fb8b15d04bdd4e2	0.09645635
161	0x3fb78100e03e886b	0.091812186
162	0x3fb6a469ac411117	0.08844624
163	0x3fb68945b972a7e8	0.08803211
164	0x3fb6db6ebfeb00d9	0.089285776
165	0x3fb69b0b08c7a4c5	0.08830327
166	0x3fb57ccbad92f5bc	0.08393548
167	0x3fb517400d8c2fa4	0.08238602
168	0x3fb5450f7ea31e28	0.08308503
169	0x3fb50fa3a1854b59	0.082269885
170	0x3fb4e920eb5d05c0	0.08168226
171	0x3fb4fbde075cc0a0	0.08196819
172	0x3fb4ab6afd4ef5b1	0.08074063
173	0x3fb3f3a6c0c9894b	0.077936575
174	0x3fb37dac283c8a1f	0.07613636
175	0x3fb2f95e504262a6	0.07411756
176	0x3fb2a64eb3c239cc	0.07285015
177	0x3fb2a91867aadf11	0.07289269
178	0x3fb2eca2801d1bc5	0.07392326
179	0x3fb40e8fff80c2f8	0.078347206
180	0x3fb5a86ef47f6e4a	0.08460134
181	0x3fb5e5cd6000d7d2	0.085537754
182	0x3fb5d6197ca8c80b	0.08529815
183	0x3fb5b42d7fd12cbf	0.084780544
184	0x3fb616739f5f006c	0.086280085
185	0x3fb5cbcdf43f2c91	0.08514106
186	0x3fb637f121da8a14	0.086791106
187	0x3fb9855ae2129e01	0.099691086
188	0x3fbbb745d1f14ee2	0.10826527
189	0x3fbc6bdce1b1a518	0.111020856
190	0x3fbcfd7637eaa7ff	0.11324252
191	0x3fbd9308b0d39cf6	0.11552481
192	0x3fbe1cffeb074a77	0.11763
193	0x3fbdd62ea0516eb3	0.11654941
194	0x3fba61cbde209862	0.103054754
195	0x3fb27533dea9c409	0.07210087
196	0x3f96745d7d922fa1	0.021928273
197	0xbfa8415001752013	-0.047373295
198	0xbfc06843f6a4e278	-0.12818193
199	0xbfca61a5210c3f29	-0.20610489
200	0xbfd0e9bf00b155ce	-0.26426673
201	0xbfd385ca6492a6b6	-0.30504093
202	0xbfd540439cb7dc25	-0.33204737
203	0xbfd6464afd7f4733	-0.34804034
204	0xbfd6e0a0ff947542	-0.35746026
205	0xbfd7178fd41df9e6	-0.3608131
206	0xbfd737ebdf61a4e1	-0.36278817
207	0xbfd76ba42868d4d6	-0.3659449
208	0xbfd765b48fbf2544	-0.3655826
209	0xbfd71bf203bdfaa2	-0.36108065
210	0xbfd684c43fb5779c	-0.35185343
211	0xbfd4e6147c38e09c	-0.32654297
212	0xbfd276fecf7e57f5	-0.2885129
213	0xbfcd72dc159512a1	-0.23006774
214	0xbfc45b2d4d4024b3	-0.1590325
215	0xbfb64052c0ed1aa0	-0.086918995
216	0xbf9980c10599470e	-0.02490522
217	0x3f974f80f1ad0100	0.02276422
218	0x3fab3ef9ffa4aa33	0.053214848
219	0x3fb1bfbe716a5081	0.06933203
220	0x3fb3a0c587df070c	0.07667193
221	0x3fb428a28b85afad	0.07874504
222	0x3fb42501fe4322a6	0.078689694
223	0x3fb3e071f0325796	0.07764351
224	0x3fb389e2417e249e	0.07632269
225	0x3fb3973337e5ca75	0.07652588
226	0x3fb2bd1879c96fa0	0.07319787
227	0x3fb146a5c1452f34	0.067484245
228	0x3fb120700d0348b5	0.06690121
229	0x3fb0f9b97f681512	0.066310495
230	0x3faf75bc80e0765e	0.061445132
231	0x3fad387581254853	0.057071373
232	0x3faa5bd13714bf2a	0.05148176
233	0x3fa756f2d5f5eb54	0.04558524
234	0x3fa4751de441888b	0.03995603
235	0x3fa3a5837f1d63e0	0.038372144
236	0x3fa594e5bbed3cc0	0.042151622
237	0x3fa6a0b7006df537	0.044194907
238	0x3fa65770a1a01ab5	0.043635864
239	0x3fa59c3b81d8aa1d	0.042207584
240	0x3fa6368349cbfbec	0.04338465
241	0x3fa64e67fe274900	0.043566942
242	0x3fa502fefcb9934e	0.041038483
243	0x3fa531fa231c39c7	0.04139692
244	0x3fa3108abcb1f789	0.03723558
245	0x3fa08bd922d7ac8b	0.032316957
246	0x3fa06547019c3759	0.032022685
247	0x3fa212be48a58b3f	0.03529925
248	0x3fa3d5d7c0fa394a	0.038740866
249	0x3fa44c74dee05bdc	0.039645817
250	0x3fa48450ff6e5718	0.040071994
251	0x3fa40cd83bd1f96e	0.039160497
252	0x3fa43d5a425a874f	0.039530583
253	0x3fa380dca31d6ab9	0.038092513
254	0x3fa3a6607c6c8d1c	0.03837873
255	0x3fa4d663e08b56c7	0.040698167
