mumax3/Stray field resources/stray_field_v11_FeCo_5_5_DMI_Stack.out/B_demag_150mT_10K_FeCo_5_5_7stack_layer10.npy (npy, 524416 bytes, 1 tensors)

array f8 [256, 256]
-0.01553951 -0.017608108 -0.018947806 -0.019566733 -0.019507173 -0.018822901 -0.017565783 -0.015777394
-0.013492244 -0.010748715 -0.007599678 -0.004120253 -0.0003964575 0.0034843683 0.007432881 0.011349925
0.015129494 0.018668763 0.021888657 0.024735257 0.027169863 0.02916368 0.030700842 0.031784847
0.03244832 0.032745764 0.03273444 0.03246745 0.03200267 0.031411286 0.030767921 0.030125272
0.02949515 0.028857918 0.02818716 0.027474612 0.026732113 0.025988389 0.025272515 0.024610033
0.024020825 0.023515683 0.023095164 0.02274722 0.022452299 0.022190947 0.021953667 0.021731697
0.021517094 0.021305487 0.021100065 0.020915525 0.020778092 0.020712877 0.020731922 0.020829983
0.020990537 0.02119037 0.021403652 0.0216102 0.021797683 0.021962633 0.022113537 0.022265248
0.02243378 0.022635343 0.022883356 0.02319352 0.023577252 0.024033973 0.024551209 0.025115723
0.025717879 0.026349373 0.026993468 0.027613893 0.028161932 0.02858277 0.028820422 0.028807083
0.028464003 0.027695633 0.026387153 0.024403574 0.021587886 0.017761549 0.012739256 0.0063688615
-0.0014248006 -0.010608625 -0.02104465 -0.032500513 -0.044658076 -0.057119645 -0.06943649 -0.08114189
-0.09179804 -0.10104205 -0.10861918 -0.114387125 -0.11829509 -0.12034884 -0.12058118 -0.11904432
-0.11580208 -0.11093681 -0.10454959 -0.09677864 -0.087808594 -0.07788252 -0.06728043 -0.056292396
-0.045206252 -0.03430576 -0.023871958 -0.014175482 -0.0054387823 0.002191728 0.008671895 0.014045243
0.018409472 0.02187629 0.02455021 0.026525997 0.027890071 0.028727941 0.02913286 0.029209133
0.029061558 0.028771097 0.02839094 0.027956676 0.027496189 0.027031563 0.026576836 0.026137095
0.025706485 0.025280189 0.024860524 0.024462398 0.024106711 0.023809046 0.023575325 0.023409419
0.023321075 0.023319386 0.023405416 0.023561142 0.023753887 0.023949629 0.02412477 0.024268927
0.024382988 0.02446856 0.024514776 0.024493944 0.024359865 0.024047706 0.02346937 0.022514991
0.021077074 0.019068634 0.01644874 0.013239779 0.009540771 0.0055387514 0.0015004082 -0.002255721
-0.005405347 -0.007680621 -0.008912439 -0.009039653 -0.008093414 -0.0061842958 -0.0034923125 -0.0002478594
0.003296108 0.0068920916 0.01032077 0.013405816 0.016026614 0.018127551 0.019710995 0.020818777
0.02151352 0.02186673 0.021957885 0.021864064 0.02164695 0.02134809 0.02100032 0.020640284
0.020304162 0.020009631 0.019753024 0.019518327 0.019293359 0.019082075 0.018900532 0.018766785
0.018695032 0.018693276 0.018755186 0.018853206 0.018953543 0.019035596 0.019104157 0.01918379
0.019306714 0.019498698 0.019766485 0.020088328 0.020419858 0.020717798 0.020963803 0.021167792
0.021354383 0.021546915 0.021763913 0.02201913 0.022324871 0.022684082 0.023085643 0.023515688
0.023962997 0.024430573 0.02492467 0.025451954 0.026022717 0.026652705 0.027353171 0.028115932
0.028909463 0.029688604 0.030411646 0.031048901 0.031582106 0.031999163 0.03228045 0.032390434
0.03227229 0.031857215 0.031075247 0.02985574 0.028136857 0.025877023 0.023069266 0.019741733
0.015957449 0.011813812 0.0074410858 0.0029864619 -0.0014015809 -0.0055837063 -0.009422259 -0.012781088
00000000: 0c88 f7b9 2dd3 8fbf dd8a 0420 dc07 92bf
00000010: 1d60 67bc 0d67 93bf 7f5a 4c39 4d09 94bf
00000020: f326 4a38 b0f9 93bf efe7 d780 4f46 93bf
00000030: c0f5 0dbe c3fc 91bf 6003 fcfc f227 90bf
00000040: e853 d655 d2a1 8bbf d533 311b 6c03 86bf
00000050: c2a7 8507 d720 7fbf 2b10 2efe 65e0 70bf
00000060: d143 2bff 73fb 39bf 23bb a9fc 3f8b 6c3f
00000070: 3d01 f6cc f071 7e3f 8a15 7f25 a13e 873f
00000080: 14f0 7a4f 36fc 8e3f 07c7 2a7a e71d 933f
00000090: 269a dfe7 fa69 963f 5d1c 7eff 3254 993f
000000a0: db52 16a4 6ad2 9b3f 19f4 526f 15dd 9d3f
000000b0: 1e0e 66a1 0a70 9f3f 8729 bf7c 1a46 a03f
000000c0: d497 6bf2 109d a03f 46d1 ec82 0dc4 a03f
000000d0: bb78 818a 91c2 a03f c778 ded7 929f a03f
000000e0: 9ec1 116a a762 a03f 82cb 30dc 2315 a03f
000000f0: 37f9 d739 a081 9f3f b6a8 17c8 28d9 9e3f
00000100: 39fd 8f02 fa33 9e3f 15a0 2918 ee8c 9d3f
00000110: 23ee 7749 18dd 9c3f 3d89 0a00 4e22 9c3f
00000120: 7f16 5abc a95f 9b3f e0a9 5243 b39c 9a3f
00000130: d192 a6c5 09e1 993f e7cd 8d5b 5f33 993f
00000140: f916 3147 ea98 983f ad60 b6c5 7e14 983f
00000150: 2093 4d38 42a6 973f ac50 e617 0c4b 973f
00000160: bd36 b347 bcfd 963f 9b71 873e 39b9 963f
00000170: fd49 2ba7 057b 963f 2238 9b7f d540 963f
00000180: fccb 23bc 9308 963f bdb8 8f07 1bd1 953f
00000190: 5051 7964 419b 953f 9328 6a1f e16a 953f
000001a0: 79ff 7326 da46 953f bbc6 48a5 c135 953f
000001b0: 8c94 e4bb bf3a 953f 7181 0b7f 7454 953f
000001c0: a70c c317 8b7e 953f bc80 8fa8 edb2 953f
000001d0: f17b 6bc5 d6ea 953f 7942 0af9 fb20 963f
000001e0: 0d4d 74be 2152 963f bd4e e059 5f7d 963f
000001f0: eb04 db58 eea4 963f ec43 fd7f b3cc 963f
00000200: ecdf b37d e1f8 963f d7ca ac27 b82d 973f
00000210: 9a26 9206 bc6e 973f 8938 84c7 0ac0 973f
00000220: 1205 1499 a224 983f 249e 1ca0 5c9c 983f
00000230: cbd5 edbe f323 993f 2601 9aa3 efb7 993f
00000240: e0f1 e8a4 c955 9a3f 8d6d 387d 54fb 9a3f
00000250: 5aff 0ff9 2ca4 9b3f 30a6 66fd d046 9c3f
00000260: 508c ba43 7bd6 9c3f 2630 8439 cd44 9d3f
00000270: 1ca5 c9c7 1983 9d3f bd3b 839d 9a7f 9d3f
00000280: 2c34 fee7 aa25 9d3f 8177 e877 3e5c 9c3f
00000290: 119e addc 3b05 9b3f 152b f120 40fd 983f
000002a0: 3069 7081 221b 963f b440 5360 1530 923f
000002b0: adb8 29ff 0917 8a3f 4c1e af3d 3c16 7a3f
000002c0: 0995 bdfe 0b58 57bf aab8 718b f9b9 85bf
000002d0: a1e7 058e ba8c 95bf bf5e e040 e8a3 a0bf
000002e0: 6935 d85f 6cdd a6bf e0df 773e c93e adbf
000002f0: b3f3 b2fd 96c6 b1bf 9cb8 e203 b7c5 b4bf
00000300: de0b a38b 1380 b7bf f052 454c e4dd b9bf
00000310: 8d7e d171 77ce bbbf e65d f580 7948 bdbf
00000320: f5ce d346 9648 bebf 775a e97b 2ecf bebf
00000330: 6bf3 9c80 68de bebf e1af 2c45 b079 bebf
00000340: 86a5 6882 34a5 bdbf 7860 dfd2 5a66 bcbf
00000350: a236 dc0d c3c3 babf f658 c025 7cc6 b8bf
00000360: 73a9 89bf 9f7a b6bf 337f 54dc 1bf0 b3bf
00000370: ecc4 824e 4a39 b1bf 0dbe aa5f 5bd2 acbf
00000380: 1858 d41b 4625 a7bf b562 874a 8690 a1bf
00000390: 081f 9bfb e371 98bf 96a2 c2fc 0808 8dbf
000003a0: 40ad bc01 fa46 76bf f782 9d02 63f4 613f
000003b0: 09d2 5a0b 92c2 813f 0984 cb9a c0c3 8c3f
000003c0: e5dd b4c0 eed9 923f 3a66 6ef8 bc66 963f
000003d0: db5e 3db4 b023 993f b967 6f86 a129 9b3f
000003e0: 2bfe 4ffb 368f 9c3f 6640 4e7c db6a 9d3f
000003f0: 357b c123 01d5 9d3f d105 ebbb ffe8 9d3f
00000400: 8425 b924 50c2 9d3f 197c bda2 2b76 9d3f
00000410: 87f6 35bb 8312 9d3f 6cdd 7fc4 aca0 9c3f
00000420: 2f1b 1402 f627 9c3f 86d6 2d7c 29ae 9b3f
00000430: b2fb cd45 f536 9b3f d024 f3c0 aec3 9a3f
00000440: 50ff 7a01 cd52 9a3f ee7f f7c3 0ce3 993f
00000450: d16a 2a86 0975 993f 3123 91bd ab0c 993f
00000460: 0fbe 6ffd 6daf 983f c003 ad07 6661 983f
00000470: 9664 7847 2124 983f f4eb 1784 a3f8 973f
00000480: d9f1 bad9 7ae1 973f 3163 ee80 09e1 973f
00000490: dcbc 13e1 96f7 973f d6b9 6279 6920 983f
000004a0: 3882 455f f052 983f 68af 3965 4086 983f
000004b0: bbaf b1e8 29b4 983f 7196 181f f4d9 983f
000004c0: d2b0 27a0 daf7 983f 28bd eb43 490e 993f
000004d0: cb4b c1c4 661a 993f 7360 b8c1 f014 993f
000004e0: e636 0ade caf1 983f cf5a 413b f69f 983f
000004f0: 134f 6ec2 5a08 983f 8516 0f78 2b0e 973f
00000500: 18fb 197e 3a95 953f 1838 a35d ba86 933f
00000510: 8b0e 7141 f0d7 903f dc79 7d0e 751d 8b3f
00000520: 9e95 639b 1c8a 833f d091 fa41 cdaf 763f
00000530: 8cde 9309 2b95 583f 9b97 90fd 967a 62bf
00000540: 3aa0 6ac9 ea23 76bf 02a6 2000 b775 7fbf
00000550: 23c1 4250 af40 82bf 4b7b 04b0 6183 82bf
00000560: 943d 8ba3 4793 80bf ec4c 5b43 b454 79bf
00000570: a77a 32ff e89b 6cbf 6584 5a04 643e 30bf
00000580: d2f9 0c82 7000 6b3f 535b 5ec0 e13a 7c3f
00000590: 4cd0 f44c 0e23 853f b79a 5e2a 8274 8b3f
000005a0: b282 fbdb 4769 903f ea68 ce5a 0790 923f
000005b0: 6d23 967b 1e2f 943f 5d4d 6e79 8451 953f
000005c0: ee90 49e3 a307 963f d0c0 e168 3b64 963f
000005d0: 0d79 dbb7 207c 963f 2bc1 597f 8863 963f
000005e0: f18a 3b39 9e2a 963f f43b 8711 46dc 953f
000005f0: 4b11 6c9e 1b81 953f 4d65 0a03 ba22 953f
00000600: 8cfd 0c3f 9dca 943f 4807 009b 677d 943f
00000610: 1ef4 4e00 233a 943f dfef 8cc0 9cfc 933f
00000620: 4d6d bd67 a3c1 933f f75f 4260 408a 933f
00000630: 099c 443b a95a 933f 8ee3 4d9f 9937 933f
00000640: e093 265c ca24 933f 76e7 4c84 5424 933f
00000650: 1668 003a 8f34 933f cd6c c73c 414e 933f
00000660: ab35 50bd 8e68 933f d395 1e39 117e 933f
00000670: dd6e 2146 0a90 933f 7640 a75a eaa4 933f
00000680: 2f95 e4a4 23c5 933f 75f8 e578 77f7 933f
00000690: 200a 875a aa3d 943f 1350 2adf 0892 943f
000006a0: 9c23 3279 f1e8 943f 4da8 6be3 0b37 953f
000006b0: 1f9f 2301 8977 953f 0b60 7979 02ad 953f
000006c0: b7ed 7162 ecdd 953f f0cd 04fd 6410 963f
000006d0: f99e 457a 4749 963f a10b f2cc 2e8c 963f
000006e0: 9965 54bb 54dc 963f 72b2 51f9 7e3a 973f
000006f0: 13be c446 c3a3 973f 369c 9c1b 7f14 983f
00000700: 1472 b781 c189 983f edeb 3a00 5404 993f
00000710: 25eb 0d4a da85 993f c07a 32b8 1310 9a3f
00000720: f84b dff9 b2a5 9a3f f0bb 4cc1 d84a 9b3f
00000730: 5d2e 8c3b 7802 9c3f 8d09 bf41 6cca 9c3f
00000740: 490a 8538 719a 9d3f 8ebf f97c b066 9e3f
00000750: dc3a f303 3b24 9f3f dba9 7c79 48cb 9f3f
00000760: f04e d1a0 872b a03f f832 2bbd 3162 a03f
00000770: feae 192a 1087 a03f 156c 779d 7a95 a03f
00000780: 13eb 3b5c fe85 a03f b91e 22c1 964f a03f
00000790: 880b 5286 30d2 9f3f 9a6d 97cb 8092 9e3f
000007a0: 3c48 8282 e8cf 9c3f 70e8 029e 817f 9a3f
000007b0: b707 0d3c 789f 973f f5cb 6746 2d37 943f
000007c0: ec91 5446 2657 903f 8ce0 7201 d731 883f
000007d0: e40f 8642 8b7a 7e3f 5eb8 1e86 1077 683f
000007e0: 6b66 3408 a8f6 56bf 4afa 2ebf f0de 76bf
000007f0: 2756 1332 fa4b 83bf c206 bd97 f82c 8abf
