mumax3/Stray field resources/stray_field_v11_FeCo_5_5_DMI_Stack.out/B_demag_75mT_10K_FeCo_5_5_7stack_layer7.npy (npy, 524416 bytes, 1 tensors)

array f8 [256, 256]
00000000: 4e7f 93f9 89fb c23f 22a3 66bc 6b58 c33f
00000010: e166 0a00 0294 c33f 4abb 6e9d c1d7 c33f
00000020: a135 589b 732e c43f 9ddc 29fc 9d16 c53f
00000030: 0ec6 e3fd 13b7 c53f f20c 75b3 9a09 c63f
00000040: b064 f980 6175 c63f ca20 2d84 8bcb c63f
00000050: cf93 9d44 a58d c73f d0aa e001 afe0 c73f
00000060: 1fed 24c7 4299 c73f 17e7 98c1 523c c73f
00000070: 48b0 8a9a 5c4a c73f dfc2 78d5 1c83 c73f
00000080: 8a17 d197 5a46 c73f 4ea3 7f38 fefa c53f
00000090: 520b 0485 6a98 c33f 99a2 d8e1 1ae5 bf3f
000000a0: 11bb df36 8dcc b33f a76a 9cfc ff00 873f
000000b0: 6841 a4b6 3fdd b1bf edf0 d764 8d7a c3bf
000000c0: 6ae4 eb19 5f07 ccbf d835 ce64 072e d1bf
000000d0: 4cb6 0de5 3c8a d3bf a1e5 71ff 2eff d4bf
000000e0: 374a a82a 7e9d d5bf 5062 a5bc 3534 d6bf
000000f0: f301 81ce a4cd d6bf 11a6 8bc1 81d8 d6bf
00000100: 7238 d29d 509d d6bf 515d c83c 5572 d6bf
00000110: 1ff9 4165 1559 d6bf 8145 3ce1 3e15 d6bf
00000120: 1d44 c6fe 0d75 d5bf ac87 3784 8d9f d4bf
00000130: 56dd 9f62 075b d3bf e6e6 fac2 5448 d1bf
00000140: f88f 22be 55cf cbbf 17c5 611f 53ad c2bf
00000150: e763 88ad eaf6 b0bf 0ceb f6f4 39c0 853f
00000160: bc88 00f1 040c b43f 6273 a302 06cd bf3f
00000170: 126e 6c55 9611 c33f d77b 5ce1 7ebc c43f
00000180: 5218 6bea 02ff c53f 3140 c317 fd53 c63f
00000190: 8d96 8775 7842 c63f ebce 4d7a 6331 c63f
000001a0: 0b99 6d9f 3c49 c63f 8a1a d0fb 949d c53f
000001b0: b8f5 05ba 1714 c53f 7c0a a1ff f53c c53f
000001c0: e14f 6418 3d58 c53f 13ca ca48 2052 c53f
000001d0: 031e 9c78 9c5c c53f 4543 4adc f84d c53f
000001e0: 86a9 d2bb 1d06 c53f 125e 8ac4 67df c43f
000001f0: 76ee a8f7 75dc c43f 1f58 02e7 9499 c43f
00000200: 5e4a 1b16 bc4b c43f 0c24 8337 ff8a c43f
00000210: 824c 7cff 30d3 c43f cf70 dabe 0dd2 c43f
00000220: a434 9bc7 61b0 c43f 3ce9 af1d ad66 c53f
00000230: 0141 eba7 20bb c53f 1112 507e de96 c53f
00000240: e0a2 93a5 d6fb c53f d3e8 e5e2 3550 c63f
00000250: e9f3 acff ce51 c63f 4d72 7621 0c72 c63f
00000260: 6473 1759 19aa c63f c771 753a 6f67 c63f
00000270: ed98 5f72 480f c63f b5f7 6f7f aae1 c53f
00000280: aab9 1e7d 7a89 c53f 0f1e d8b7 b496 c43f
00000290: abee cb78 dfa1 c33f b0c0 fcba 78e4 c23f
000002a0: 5eea 73f7 31cd c13f fbb4 c4a9 5a7b c03f
000002b0: d3c8 9d88 34e0 bd3f 1e02 a2bb 7f87 ba3f
000002c0: a994 2a93 1269 b83f d735 18f2 210b b53f
000002d0: d917 3ba7 7aae b13f 75f3 3ea2 caaf af3f
000002e0: 3680 8ec1 5028 b03f 9e11 263e d7f4 b23f
000002f0: cac2 d21e 016c b53f 1f85 eb51 b81e b83f
00000300: 2aa1 a740 e7e7 ba3f bf82 8f1c 44c6 bd3f
00000310: 46ee 0af9 7768 c03f afb0 e07e c003 c13f
00000320: 4381 2d65 cf54 c13f afac 3c9a 4df4 c13f
00000330: 9060 f426 d071 c23f 612a 6820 b7db c23f
00000340: e332 34bf 16cb c23f dfce 3249 349a c23f
00000350: 8dd8 a347 be58 c23f 5df0 b3db 7841 c23f
00000360: 7874 2b9d 72f9 c13f 820c b29f a4c4 c13f
00000370: f857 0bc3 b2df c13f ae94 0acf f00b c23f
00000380: 4e68 ed11 c53f c23f 0c7e d1d4 a189 c23f
00000390: 0d72 9328 e6e6 c23f b1d1 0705 84da c33f
000003a0: 96fa 05fd 7d2d c43f 85e2 b7b6 2a68 c43f
000003b0: 9078 a2b9 88ce c43f c393 4868 ecc7 c33f
000003c0: aa5b e26d 4a1e c23f 2b94 d8f7 d92f c03f
000003d0: c1eb 4c04 1ed6 b83f 519f 6847 3f54 a93f
000003e0: 5d8d 4704 3e9a 85bf edbf 6b23 e008 b6bf
000003f0: 6519 0367 00da c3bf 71c6 3027 6893 cabf
00000400: 6ee0 698d 9ce0 cebf 1c2c b541 9aaf d0bf
00000410: bd90 abe4 a513 d1bf 3404 11f3 f631 d1bf
00000420: 60d8 0e04 d041 d1bf 9ae6 e3fb 5e1a d1bf
00000430: b9c7 6f5d 737f d0bf c109 5c89 064a cebf
00000440: 3dd2 e0b6 b670 c9bf 9ade 93c1 30e4 c1bf
00000450: 006e 9a67 ba11 b2bf 305e 98f1 5b19 693f
00000460: 0f59 ee16 92dd b23f 23cc 82c3 ea93 c03f
00000470: f1e6 fc56 e353 c53f be5e 4824 5d75 c73f
00000480: fe32 73dc 8456 c83f d9d9 6700 3556 c83f
00000490: 0a31 7646 8494 c73f 95e1 2eb1 e88c c63f
000004a0: 03b7 acca d7c8 c53f c316 1637 c96a c53f
000004b0: ecf6 feab 3363 c43f 46ec 766a ec1a c33f
000004c0: 79fc 0726 7135 c33f c608 7636 c391 c33f
000004d0: 92fd b989 d661 c33f d401 9c20 e24d c33f
000004e0: 8f67 3cb6 0a07 c33f dea0 8bc0 37d1 c23f
000004f0: 1a9e 669a 1328 c33f 2679 e89a 4df0 c33f
00000500: 32ba 93ba 2a71 c43f 876b 9479 d42d c53f
00000510: 6a27 73c1 53a7 c53f 1253 7d42 d117 c53f
00000520: 13fd 2d43 147a c33f 9b96 71b6 2d88 bf3f
00000530: a2ec b11d 213d b33f 11f1 7ef8 d328 773f
00000540: a291 b68e fd6e b3bf 258b c1e4 c258 c3bf
00000550: beae 573f d31e ccbf 1617 e4ba 6b01 d1bf
00000560: bab2 76a1 dadc d2bf 0b7f 441b 99aa d3bf
00000570: ae11 3d00 14e9 d3bf c027 737f 3755 d4bf
00000580: 09a0 7b83 ed6f d4bf 2794 7483 5781 d4bf
00000590: 113c 7ca1 99ca d4bf 4d2a bfb1 0c16 d5bf
000005a0: 3e72 7343 b660 d5bf 3adc bbc4 6057 d5bf
000005b0: f140 6c02 6fb5 d4bf a225 13e0 8993 d3bf
000005c0: e73c 2143 e02b d2bf bb83 1245 cc95 cfbf
000005d0: 7a72 4d81 cc4e c8bf 0e52 e8a3 290e c0bf
000005e0: f426 f17f 6862 abbf bbc3 6f08 2aea 893f
000005f0: c208 2b5f e16e b13f 193a 3434 b7a5 bc3f
00000600: 0a14 4e5e a61e c23f f78b c0f5 b485 c43f
00000610: 116b b77e 7697 c53f 5daa b108 eed5 c53f
00000620: 5ac6 d9b6 20c2 c53f edde a361 a5c0 c53f
00000630: b2a4 f51a 2f9b c53f 2865 5243 1b80 c53f
00000640: b261 f2ab de86 c53f 341f 4222 8e71 c53f
00000650: aa41 fb05 7945 c53f 43d0 0b56 2023 c53f
00000660: 26c8 6361 e355 c53f 7ac1 c847 62b4 c43f
00000670: 4cd7 7ef8 1afe c23f 724f 7885 15d9 c03f
00000680: c90e 7800 8eb4 ba3f cd94 d6df 1280 b03f
00000690: eafc 9c01 7c57 833f 9a25 1dbf 9993 a5bf
000006a0: 2d08 a361 4a07 b7bf 5dc0 4f45 bff0 bfbf
000006b0: f503 aac1 2c1b c2bf 57f0 57d8 3e2a c3bf
000006c0: dcef 7122 d136 c1bf 3063 e9c7 4f78 bcbf
000006d0: 2bfe 8c5e 4f6c b6bf 5892 b89e 5356 aebf
000006e0: 9025 9cab 20e5 a1bf 9ed2 e208 29aa 74bf
000006f0: 0317 4005 7ba4 953f 2348 e23b ea15 a73f
00000700: 9519 e381 d013 b13f d4cf dda6 265e b63f
00000710: 3529 c3c0 8c8c b93f 21e4 6146 1dc2 bc3f
00000720: 9ade 93c1 30e4 bf3f bcdb 481b 3fbb c03f
00000730: 133c aedb da21 c13f e4ec e75e 7182 c13f
00000740: 7829 54bb 4fa3 c13f 08ec 07c8 d96c c23f
00000750: 375c fd3b 4ffa c23f 8d72 7a28 1b20 c33f
00000760: eec9 8997 233b c33f ed15 7195 8249 c33f
00000770: 6128 9275 59c8 c33f 3469 cf3c ebe0 c33f
00000780: ccfc d5a9 13cc c33f 1d81 aa97 00f8 c33f
00000790: e693 57df a7c7 c43f 6219 7673 4c71 c53f
000007a0: fe2d 5cb1 1aa6 c53f 0d01 3c79 c343 c53f
000007b0: e3eb 00c2 6604 c53f c242 b5da 2609 c53f
000007c0: e84d 452a 8c2d c53f 0af6 a103 7993 c43f
000007d0: 1c04 e301 e11a c43f da93 5dbc 61d3 c33f
000007e0: 9e12 6b4c e372 c33f 0216 f184 fbd4 c23f
000007f0: c715 30e4 8532 c23f 3a6c 0996 76ac c23f
0.14830136 0.15113589 0.15295434 0.15502186 0.15766759 0.16475272 0.1696496 0.1721681
0.17545718 0.1780867 0.18401018 0.1865443 0.18436465 0.18152842 0.18195684 0.18368874
0.18183453 0.1717222 0.15308887 0.124589615 0.07733996 0.011232376 -0.06978224 -0.1521775
-0.21897496 -0.26843438 -0.30531237 -0.32807517 -0.3377376 -0.34693664 -0.3563015 -0.35696453
-0.35335174 -0.35072833 -0.34918723 -0.34504673 -0.33526945 -0.32223833 -0.30243096 -0.27003974
-0.21726486 -0.14591445 -0.06626765 0.010620549 0.0783084 0.12422216 0.14897422 0.16200243
0.17184483 0.17443813 0.17390352 0.17338222 0.17411001 0.16887152 0.16467568 0.16592288
0.16675533 0.16656879 0.16688877 0.16644202 0.16424915 0.16306779 0.16297793 0.16093694
0.15856124 0.16049185 0.16269505 0.16266033 0.16163275 0.16719593 0.16977318 0.16866666
0.171748 0.17432283 0.1743716 0.17535545 0.17706601 0.17503157 0.1723414 0.17094928
0.16825801 0.16084918 0.15337747 0.1475974 0.13907456 0.12876447 0.11670235 0.10363005
0.09535328 0.08220112 0.06906859 0.061888058 0.063115165 0.074048474 0.083679266 0.09421875
0.105101064 0.11630655 0.12818813 0.132927 0.1354007 0.14026804 0.1440983 0.14733018
0.14682278 0.14533094 0.14333323 0.14262305 0.14042504 0.13881357 0.13963923 0.1409894
0.1425711 0.1448252 0.14767148 0.15510607 0.15763831 0.15942892 0.16255292 0.15453868
0.1415494 0.12646031 0.09701717 0.04947088 -0.0105481 -0.08607293 -0.15509038 -0.2076235
-0.2412296 -0.26071793 -0.26682422 -0.2686746 -0.26964188 -0.26723456 -0.25777897 -0.23663408
-0.19875225 -0.13977632 -0.07058301 0.00306385 0.0736934 0.12951407 0.16662256 0.18326916
0.19014035 0.19013083 0.18421987 0.1761752 0.17019174 0.16732135 0.1592774 0.14925914
0.15006842 0.15288582 0.15142328 0.15081431 0.1486524 0.14700982 0.14966054 0.15577097
0.15970358 0.16546112 0.16916892 0.16478935 0.15216306 0.12317167 0.07515151 0.005654171
-0.07591233 -0.15114628 -0.21969071 -0.26571172 -0.29472986 -0.30728748 -0.31110096 -0.31770122
-0.31933153 -0.3203944 -0.32486573 -0.3294708 -0.33402783 -0.33345813 -0.32357383 -0.30588004
-0.28392798 -0.24675897 -0.18990475 -0.12543221 -0.05348517 0.012653664 0.06809815 0.11190362
0.14156036 0.16033041 0.16868478 0.17059112 0.16998681 0.16994159 0.16879834 0.167972
0.1681784 0.16752793 0.16618264 0.16513447 0.1666836 0.16175488 0.14837968 0.13162488
0.104317546 0.06445425 0.009444207 -0.042141728 -0.089954995 -0.12476726 -0.14145431 -0.14972673
-0.13448538 -0.11121081 -0.08759018 -0.05925237 -0.03495123 -0.00504509 0.021135256 0.045089073
0.066708595 0.08737413 0.09980087 0.11233695 0.12457566 0.13071431 0.13384567 0.1367933
0.13779637 0.14394686 0.14826384 0.1494173 0.15024228 0.15068085 0.15455168 0.15530148
0.15466543 0.15600593 0.16234301 0.1675201 0.1691316 0.16613048 0.16419682 0.16434179
0.1654525 0.16075051 0.15707028 0.15488836 0.1519436 0.14712471 0.14216684 0.14588816
