mumax3/Stray field resources/stray_field_v2.out/B_demag_75mT_layer2_x.npy (npy, 131200 bytes, 1 tensors)

array f8 [128, 128]
0	0xbfa5630dec51cd52	-0.04177135
1	0xbfacb96d63499539	-0.056102198
2	0xbfb2d101bac02fdb	-0.07350169
3	0xbfb796c279b7a6f6	-0.09214416
4	0xbfbb8ea9509bced3	-0.10764559
5	0xbfbd04a73fdb9e5d	-0.113352254
6	0xbfbad17fe4e7a0b9	-0.10475921
7	0xbfb5b663d4bbae97	-0.0848143
8	0xbfaf7f9cdd09ca9e	-0.061520483
9	0xbfa4f60e0eb67c28	-0.04093975
10	0xbf99585ea2080e53	-0.024751166
11	0xbf88753bc14c3b17	-0.011942355
12	0xbf461cd67e3d23f8	-0.00067482446
13	0x3f866ea74166c16f	0.010953242
14	0x3f997aa2b373b559	0.02488188
15	0x3fa617e44d4705a3	0.04315103
16	0x3fb13becc03234b1	0.06732063
17	0x3fb8ad0cfe6b2a70	0.096390545
18	0x3fbf9c075d16867f	0.12347456
19	0x3fc1712861481974	0.1362658
20	0x3fc045fe7c724166	0.12713605
21	0x3fba039c0152e657	0.101617575
22	0x3fb2551b3a6e0ffe	0.07161112
23	0x3fa71a4a61ab9f33	0.045122456
24	0x3f98e5b163ff72ab	0.024313709
25	0x3f80b4ab06c32c7f	0.008157097
26	0xbf75b40bf1e1eb53	-0.005298659
27	0xbf9286a13bc6ccfb	-0.018091697
28	0xbfa09b56210db087	-0.032435123
29	0xbfaa0d4e7228e755	-0.05088277
30	0xbfb35744b566a9ad	-0.07555036
31	0xbfbaf5abbe3458a2	-0.10531114
32	0xbfc0d285487ec9e0	-0.13142458
33	0xbfc1c589f7e60025	-0.13884091
34	0xbfbf0499eda762db	-0.12116396
35	0xbfb6f230898aadc3	-0.08963302
36	0xbfae379d02e33cd9	-0.059018046
37	0xbfa253a73e6a405d	-0.035794474
38	0xbf943c0de70d2eab	-0.019760339
39	0xbf80fce94a30fba0	-0.00829489
40	0x3f5a6625f2da87de	0.0016112681
41	0x3f8a7fc0c444acc7	0.012938982
42	0x3f9d8cc9406a173a	0.028857369
43	0x3fab08993ce39c58	0.052799977
44	0x3fb63b495736f387	0.08684214
45	0x3fc016fdc86d41a2	0.12570164
46	0x3fc331eefaf4fe44	0.14996135
47	0x3fc1fdbb572e900b	0.14055578
48	0x3fbb419d3f7ca8d9	0.106469944
49	0x3fb2248e29cedb70	0.07087029
50	0x3fa7316d35628d69	0.04529897
51	0x3f9efd21981a0178	0.030262494
52	0x3f972f3939c3ac4e	0.022641081
53	0x3f9370646c104979	0.01898343
54	0x3f90da483578ddb7	0.01645768
55	0x3f8b16f8eae2e263	0.01322741
56	0x3f816d5e2fe9b03b	0.008509384
57	0x3f626d998132ffe3	0.0022495268
58	0xbf7634cd67267fc7	-0.00542145
59	0xbf8e1f50c1fe2b83	-0.014708167
60	0xbf9b262e5f5b51ad	-0.026512837
61	0xbfa5c3c0b49095e5	-0.0425091
62	0xbfb083e54126aaa8	-0.064512566
63	0xbfb79d4d834091c1	-0.092244
64	0xbfbe87b3fe74ba92	-0.119258165
65	0xbfc0ed91e94c096e	-0.13225006
66	0xbfbf5443cf0cc307	-0.12237953
67	0xbfb8b1a78265757b	-0.09646079
68	0xbfb17ac91eed5604	-0.06827981
69	0xbfa795b9ffda5a18	-0.046064198
70	0xbf9fffcc870a5374	-0.031249233
71	0xbf9696dc7aeaacdd	-0.022059865
72	0xbf909bc7c72974c3	-0.016219255
73	0xbf88db8ff7f406bc	-0.012137532
74	0xbf82903a4a53b636	-0.009064155
75	0xbf7ba58e809d0499	-0.006749684
76	0xbf74dee13ea23bcf	-0.0050953673
77	0xbf7068787e2fca8d	-0.004005881
78	0xbf6bc3a67e1b9e48	-0.0033891918
79	0xbf69f4c7fee1e6c8	-0.0031684786
80	0xbf6aa0f7ff2200fe	-0.003250584
81	0xbf6c8e7204657b96	-0.003485892
82	0xbf6e0ed4034ce68e	-0.00366918
83	0xbf6d6a6ffd97599e	-0.0035907924
84	0xbf696e24062acd9a	-0.003104277
85	0xbf61c6c8002851aa	-0.0021699816
86	0xbf4c4d87fe7fb7f2	-0.00086373463
87	0x3f44d5f7f229229a	0.0006358586
88	0x3f610024fbd36ea9	0.0020752642
89	0x3f6a16865b21af6a	0.0031845688
90	0x3f6edc65fa8e59a8	0.0037672035
91	0x3f6ef71d721a936e	0.003779943
92	0x3f6b73e204546907	0.0033511557
93	0x3f666120023348f3	0.0027318597
94	0x3f6237d3f933548e	0.0022238865
95	0x3f616975ff247ca6	0.002125483
96	0x3f660c3c02cd804a	0.0026913807
97	0x3f70bd75fdef3fd0	0.004086934
98	0x3f7a040df9096323	0.006351523
99	0x3f83546282d70a68	0.009438295
100	0x3f8b6a52fc73a5e1	0.013386391
101	0x3f9303b1656839a5	0.018568775
102	0x3f9a723d5f3112f2	0.025826415
103	0x3fa2905e318e985f	0.03625769
104	0x3fa9da097ee266c6	0.050491616
105	0x3fb142c724ed1f53	0.0674252
106	0x3fb541df487a6d2f	0.08303638
107	0x3fb75ef4d803b79b	0.09129267
108	0x3fb6aedddfaadc1d	0.088605754
109	0x3fb3d6df5fcc6e58	0.077497445
110	0x3fb05e357fe99a38	0.063937515
111	0x3faabb3aa08740f4	0.052209694
112	0x3fa63b9480ab0b31	0.04342331
113	0x3fa2f1978770a22a	0.03699945
114	0x3fa074bc3f8bdc17	0.03214062
115	0x3f9cf00162df25f3	0.028259298
116	0x3f996d1e80378ca3	0.024830319
117	0x3f95d1a2db9ddc30	0.021307511
118	0x3f91b44ffe4514dd	0.0172894
119	0x3f8a09c6276c2aa1	0.012713955
120	0x3f80100951514531	0.007843087
121	0x3f68bf3c060eb98c	0.0030208752
122	0xbf5a4a2e58753a7e	-0.0016046002
123	0xbf793f82e323f02d	-0.0061640847
124	0xbf8662823c6bfd3a	-0.010930078
125	0xbf909e4b5a1b7f62	-0.016228845
126	0xbf971de644edf0b4	-0.022574995
127	0xbf9f8606c84ec162	-0.030784708
128	0xbfaa63747fbfe4ee	-0.051540032
129	0xbfb0b4b440fe91b0	-0.065257326
130	0xbfb491b2f057c15d	-0.08034819
131	0xbfb7edd733830f3f	-0.09347291
132	0xbfb9a908218c97a8	-0.10023547
133	0xbfb8d4f438a18724	-0.09699942
134	0xbfb57448a738be8d	-0.0838056
135	0xbfb0ad4cbf4b59f1	-0.065144345
136	0xbfa7d60540edc221	-0.046554722
137	0xbf9fd956842c5b39	-0.031102516
138	0xbf9373fd27de6b5b	-0.01899715
139	0xbf82417d56758b25	-0.008913974
140	0x3f4d6a8a7d93f4d5	0.00089771044
141	0x3f890d11bef7d598	0.012231959
142	0x3f9baa96411f8501	0.027017925
143	0x3fa83e210089456c	0.047349006
144	0x3fb319e1a87c0a93	0.07461367
145	0x3fbb4bb5b604df38	0.10662399
146	0x3fc11907b8dbff1a	0.13357636
147	0x3fc20a6e42fead45	0.14094332
148	0x3fbfd469cf269947	0.12433492
149	0x3fb839a98027bec7	0.094629854
150	0x3fb080094fb4f413	0.06445368
151	0x3fa442338136cc45	0.039567575
152	0x3f94fb33678b7f7b	0.020489505
153	0x3f77653520e4a02a	0.0057117534
154	0xbf7b39811d4f5ad7	-0.0066466373
155	0xbf92df57e134db20	-0.018430112
156	0xbfa03a0285407134	-0.03169258
157	0xbfa90f05bd955d86	-0.048942737
158	0xbfb28effb7b0b0e2	-0.07249449
159	0xbfba180707dc176e	-0.10192913
160	0xbfc09af83e6a9eda	-0.1297293
161	0xbfc2091e8cb3014a	-0.1409033
162	0xbfc02a1262ae200e	-0.12628393
163	0xbfb852411574058b	-0.0950051
164	0xbfb0197b7c223a68	-0.06288883
165	0xbfa374b3055076e6	-0.03799972
166	0xbf9546df627ba034	-0.02077817
167	0xbf81c2110fa56d15	-0.008670934
168	0x3f57498bf65415e8	0.0014213435
169	0x3f89c4074dc983e4	0.012580926
170	0x3f9cb2a57b9c7aed	0.028025232
171	0x3faa2e89bc680be9	0.051136307
172	0x3fb57a0554a8a3ce	0.08389314
173	0x3fbf04b180153922	0.121165365
174	0x3fc278e401f29e6e	0.14431429
175	0x3fc1479b4a1ddb5d	0.13499776
176	0x3fba04a17a639e60	0.10163316
177	0x3fb111f4df9073d6	0.066680245
178	0x3fa57f52459d1829	0.04198701
179	0x3f9d54f8c4912dd4	0.028644454
180	0x3f982692bbd9e05c	0.023584645
181	0x3f974de3043e1f98	0.022758052
182	0x3f970d7c3f6ba5c0	0.02251238
183	0x3f94fc1268400deb	0.020492828
184	0x3f9047673f20c99c	0.015897382
185	0x3f8267e97be2ad11	0.008987259
186	0x3f320a3b0ec13059	0.000275268
187	0xbf84cfee36cc3c51	-0.010162221
188	0xbf97a4a8b8bdc392	-0.023089062
189	0xbfa48c34813bffb6	-0.04013218
190	0xbfb024d019078de9	-0.06306172
191	0xbfb76f57a6b00292	-0.0915427
192	0xbfbe854c40dc7a50	-0.119221464
193	0xbfc1089d9de02544	-0.13307543
194	0xbfbfce32415f8a99	-0.124240056
195	0xbfb95c9ebc6e2fde	-0.09906952
196	0xbfb23737a4b1fb90	-0.07115505
197	0xbfa906fe5d23d8b3	-0.048881482
198	0xbfa1501af579bf34	-0.03381428
199	0xbf98c812c2942885	-0.024200719
200	0xbf9236bd78be4f28	-0.017786942
201	0xbf8abc96dade998f	-0.013055018
202	0xbf8323c3b224887e	-0.009345559
203	0xbf7a98113f7eac3f	-0.006492679
204	0xbf724c21427a35ed	-0.0044671344
205	0xbf6a54f6b894c2ab	-0.003214342
206	0xbf658e0a8072bd48	-0.002631207
207	0xbf65106bfce10e39	-0.0025713071
208	0xbf673fa8067ae09f	-0.0028379709
209	0xbf6a21820e6b3058	-0.003189806
210	0xbf6bb5c0013c8a02	-0.0033825636
211	0xbf6a77abfd01448f	-0.0032308921
212	0xbf65b5180126e738	-0.0026498288
213	0xbf5b18ac0d28765b	-0.0016538315
214	0xbf35d400057e0020	-0.00033307076
215	0x3f52f9ebf786f603	0.0011582188
216	0x3f654b75fa4c19b1	0.0025994591
217	0x3f6e89d3c2a418bd	0.0037278305
218	0x3f71ae0d9f18ed33	0.0043163807
219	0x3f7181d28ebedb59	0.004274199
220	0x3f6e4bb906b45e9e	0.0036982168
221	0x3f6745b8fa6594e3	0.0028408635
222	0x3f609898041bad2a	0.0020258874
223	0x3f59b7f80715d181	0.0015697405
224	0x3f5c51000585e73a	0.0017282963
225	0x3f65b594058cdb10	0.0026500598
226	0x3f71c3c7f3fd9bd5	0.004337102
227	0x3f7b5399fd6410c3	0.0066715255
228	0x3f8397348f7eb898	0.009565745
229	0x3f8b0574f8bf32ca	0.013194002
230	0x3f929579e07ce91b	0.018148331
231	0x3f99f4983a406517	0.025347117
232	0x3fa2398257b39b23	0.03559501
233	0x3fa8f848fc732d9f	0.048769265
234	0x3fb015b85f3db95a	0.062831424
235	0x3fb2dac32f951901	0.07365055
236	0x3fb3c3fb170d0cd9	0.07720918
237	0x3fb2b7b40be0b3df	0.07311559
238	0x3fb09c18240e2735	0.06488181
239	0x3face973ddae829b	0.056468602
240	0x3fa97ede017d838e	0.049796045
241	0x3fa7114f07d0030d	0.04505393
242	0x3fa56d47bd3f2164	0.041849367
243	0x3fa44af85d04a410	0.039634477
244	0x3fa3394d28a7bef6	0.03754655
245	0x3fa1a2fca25b11d2	0.034446616
246	0x3f9e243ece9cdb98	0.02943514
247	0x3f96e3bf603049fd	0.022353163
248	0x3f8c2d03ccc6cb34	0.013757734
249	0x3f7268c3db2e05ef	0.004494443
250	0xbf731ee34199ad85	-0.0046681287
251	0xbf8ae4d6bffbea2d	-0.013131788
252	0xbf94fc70062aeff6	-0.020494223
253	0xbf9b7990176d628d	-0.026830913
254	0xbfa0ef5da3fda941	-0.033076216
255	0xbfa4ea6ec9366a4a	-0.04085108
