mumax3/Stray field resources/stray_field_v2.out/B_demag_75mT_layer2_y.npy (npy, 131200 bytes, 1 tensors)

array f8 [128, 128]
0	0xbfb014cec41dd1a2	-0.0628175
1	0xbfb280e4009b057f	-0.072279215
2	0xbfb4c116354b914e	-0.08107127
3	0xbfb654e0820b5d81	-0.08723262
4	0xbfb667204aa33c5b	-0.08751108
5	0xbfb443707e537e3e	-0.079154044
6	0xbfb01d16bc2f1acb	-0.06294386
7	0xbfa667a5bcceb91c	-0.043759517
8	0xbf9b7bd585d05b6f	-0.026839577
9	0xbf8dd6ac9f85c1cb	-0.014569615
10	0xbf7bc7387d0de184	-0.0067817885
11	0xbf62a3366511b3a4	-0.0022750914
12	0x3f336bde8699c8d0	0.0002963465
13	0x3f61e542fd6521ec	0.0021845158
14	0x3f72c382876a7e34	0.004580984
15	0x3f81ce703264789d	0.008694531
16	0x3f9009971c558fee	0.015661584
17	0x3f9a84b99ed8d9dd	0.025896931
18	0x3fa33e6ccd32ce33	0.03758564
19	0x3fa77ad47eea383a	0.045858994
20	0x3fa7b2a8894b98b0	0.04628493
21	0x3fa46a250cd4cfa6	0.03987232
22	0x3fa0036361cf27f1	0.03127585
23	0x3f9872f788261887	0.023876064
24	0x3f9315219caa3ca1	0.018635297
25	0x3f8f6db6f8e138fc	0.015345983
26	0x3f8be23f4735152d	0.013615126
27	0x3f8afd020d902540	0.013177887
28	0x3f8c7d51ff150d47	0.0139109045
29	0x3f9025dc43c969a7	0.015769426
30	0x3f9318aaa4617c4f	0.018648783
31	0x3f968f0ba11df259	0.02203005
32	0x3f9900e57a900b73	0.024417482
33	0x3f982f873d5cbe02	0.023618806
34	0x3f93875cf875ea5f	0.019071057
35	0x3f8aa2b15f21e84c	0.0130056245
36	0x3f801e8c3227f05f	0.007870765
37	0x3f72712fa94c2559	0.004502474
38	0x3f65aa9285ec222e	0.0026448118
39	0x3f5cf18101e0396d	0.0017665634
40	0x3f5712ce05537367	0.001408292
41	0x3f54d92bf66b104b	0.0012724809
42	0x3f5449f0005c0509	0.0012383312
43	0x3f5613fc04748e2f	0.0013475381
44	0x3f5cba280480ee27	0.0017533675
45	0x3f6477be03848f89	0.0024985038
46	0x3f6827d9ff337e11	0.0029486902
47	0x3f5d5cf00b8f5700	0.0017921776
48	0xbf5697dbf6adbe36	-0.0013789795
49	0xbf77337fffd7a097	-0.0056643486
50	0xbf847021f36737bf	-0.009979501
51	0xbf8b6bf13fc8c2d2	-0.0133894775
52	0xbf8edcd98a4a713d	-0.015069675
53	0xbf8dbbd12f9099f4	-0.014518389
54	0xbf8823d71fb6ff86	-0.01178711
55	0xbf7e80cb305952f1	-0.007447046
56	0xbf62f29cc1cc7b8a	-0.0023129522
57	0x3f6772cff89dad72	0.002862364
58	0x3f7ef3586b95bf08	0.007556291
59	0x3f87857fc2692cd0	0.011485098
60	0x3f8dbbdd664d1100	0.01451848
61	0x3f90fca2c2261989	0.016588729
62	0x3f9217ef8250ca14	0.017669432
63	0x3f9240348119a39e	0.017823048
64	0x3f919cf13cee9dd8	0.01720025
65	0x3f9047e241d40ada	0.015899215
66	0x3f8c7ec3f7b377b4	0.013913661
67	0x3f874921870e51a7	0.011369955
68	0x3f818d7585237c17	0.008570593
69	0x3f779b47f819e02f	0.005763322
70	0x3f694ed0ff7ea93d	0.0030893404
71	0x3f468e63fdcdc30e	0.000688361
72	0xbf54aa3d019d76e4	-0.0012612911
73	0xbf654f937ac17345	-0.0026014214
74	0xbf6ab906face9b62	-0.003262056
75	0xbf6ae7a59ebe2446	-0.003284286
76	0xbf66fe3fc5ef8c35	-0.0028067823
77	0xbf60a512fd106a0e	-0.0020318385
78	0xbf533f11ff2a18e3	-0.0011747051
79	0xbf3aa8b80388bee0	-0.00040678494
80	0x3f28462bf81a4743	0.00018519675
81	0x3f43df0bfddde679	0.00060642324
82	0x3f4e564bfe6690ee	0.00092581473
83	0x3f542131fed5b37b	0.0012286175
84	0x3f59cab60b032d20	0.001574209
85	0x3f60366cfb3552e4	0.0019790772
86	0x3f63e66a0a686c59	0.002429206
87	0x3f67d01e009527fa	0.0029068552
88	0x3f6be96ef944eb66	0.0034072082
89	0x3f7019a61e812d39	0.0039307107
90	0x3f724341a6c70744	0.004458672
91	0x3f743812e19c213a	0.0049362886
92	0x3f75a292a108ccf9	0.0052819946
93	0x3f762fb15123e799	0.005416577
94	0x3f75a6a7dceed207	0.0052858884
95	0x3f73e6508a0ebfbf	0.004858317
96	0x3f70cd864316235a	0.0041022534
97	0x3f683e7afebda480	0.0029594805
98	0x3f559f0b05882351	0.0013196571
99	0xbf5096a30213a4a4	-0.0010124771
100	0xbf71e29a584a32c3	-0.004366496
101	0xbf82fc83c10c9c93	-0.009270696
102	0xbf90e5ac7dde0d78	-0.016501136
103	0xbf9bac84c7944286	-0.027025294
104	0xbfa554a74c34b6ec	-0.04166148
105	0xbfaed9ba822da86b	-0.060254887
106	0xbfb49feb7e79e9b7	-0.080565184
107	0xbfb9215cf1f377dc	-0.09816533
108	0xbfbbdcdebdbb0c05	-0.10883896
109	0xbfbc93ff7bcba860	-0.11163327
110	0xbfbbd28141b3ff76	-0.1086808
111	0xbfba43c1f6aff526	-0.1025964
112	0xbfb84df4c005e9fa	-0.094939515
113	0xbfb61794c721e807	-0.08629732
114	0xbfb3a89001955669	-0.07679081
115	0xbfb100b359334d09	-0.06641694
116	0xbfac4e0cdbe41f82	-0.055282976
117	0xbfa66d8843b0d9d2	-0.043804415
118	0xbfa0c75af2eac3ae	-0.03277096
119	0xbf97c6d942d1e1b5	-0.023219485
120	0xbf909a0320f1bd1c	-0.01621251
121	0xbf89e011abac9f38	-0.012634409
122	0xbf8a9dd2b0b3dee2	-0.012996336
123	0xbf91a3e0bcbb292e	-0.017226707
124	0xbf9927824764e5d5	-0.024564777
125	0xbfa148549c534c1c	-0.033754963
126	0xbfa64d503fde6754	-0.043558605
127	0xbfab46503dd26ae9	-0.053270824
128	0xbfb73564bbc161b5	-0.09065847
129	0xbfb9892e3c7e6083	-0.09974946
130	0xbfbb48814e1e4611	-0.10657509
131	0xbfbbb6aa4b9884c7	-0.108256
132	0xbfba0504a1a556bc	-0.10163907
133	0xbfb60243fd04f8e3	-0.08597207
134	0xbfb08af30da935ef	-0.0646202
135	0xbfa61d25bbe27ff9	-0.043191127
136	0xbf9a72c36363f4e9	-0.025828412
137	0xbf8c35224baf55ee	-0.01377322
138	0xbf7a24227cb53ae8	-0.006382117
139	0xbf63ac397bc4130c	-0.002401459
140	0xbf42dccee8ffdfff	-0.0005756388
141	0x3f2d5731f6b84fb3	0.00022385106
142	0x3f515f4179b5073a	0.0010603084
143	0x3f68d95dc1e1932c	0.0030333358
144	0x3f7dc654c2e2d9a3	0.0072692214
145	0x3f8d9aa3c0f61023	0.014455108
146	0x3f9815c07e015a15	0.023520477
147	0x3f9f62a28c87625f	0.0306497
148	0x3fa06a27103a34da	0.03205988
149	0x3f9ce4f5c1156723	0.028217163
150	0x3f96f83ee2e12da4	0.022431357
151	0x3f91922d13b467d1	0.01715918
152	0x3f8ae99040c42f33	0.0131407995
153	0x3f84fba2bcf2a8ee	0.010245582
154	0x3f80d1043efeee5d	0.0082111675
155	0x3f7c72399d1e782a	0.006944871
156	0x3f7ae8cd3f80a1e6	0.0065696733
157	0x3f7e0a99c2fc6ce2	0.0073343283
158	0x3f8345fa12deb286	0.009410814
159	0x3f89a91cd589f0eb	0.012529588
160	0x3f8f9a3132ecab28	0.015430817
161	0x3f90507947c81e45	0.015931983
162	0x3f8a9eb946bbaecb	0.012998054
163	0x3f8118877a211d20	0.008347567
164	0x3f719ec17f446161	0.004301792
165	0x3f5ce300f976ba4c	0.0017631063
166	0x3f41fbae0851e341	0.0005488014
167	0x3f23cac803c8082d	0.00015100185
168	0x3f07c80002ddec8c	4.5359135e-05
169	0xbf312cb800cd2e6b	-0.00026206486
170	0xbf5527480ab422ad	-0.0012911037
171	0xbf6e8895fc8641dc	-0.0037272386
172	0xbf817ce18e361f5d	-0.008538973
173	0xbf91030587c31c39	-0.016613089
174	0xbf9bfa4db971504f	-0.02732202
175	0xbfa3486d3d565dec	-0.037661947
176	0xbfa7229d8ec6accd	-0.04518597
177	0xbfa9ba971dc6edee	-0.050251696
178	0xbfab8f0e9d9f0434	-0.053825814
179	0xbfac868efada2652	-0.0557141
180	0xbfac1e8ffcd1911c	-0.054920673
181	0xbfa9f862c18509d9	-0.050723158
182	0xbfa635d1fc951a0c	-0.043379366
183	0xbfa16f460061c712	-0.034052074
184	0xbf98c726225c28fe	-0.024197193
185	0xbf8ead5a3827303d	-0.014979081
186	0xbf7cd7230966d36b	-0.007041108
187	0xbf42f0dffddf44f1	-0.00057803094
188	0x3f725b25f40e0ce7	0.004481457
189	0x3f8109070fbeb9e5	0.008318
190	0x3f86d61cfa033333	0.011150576
191	0x3f8b1112f7d4626d	0.01321616
192	0x3f8dfcbd8053a269	0.01464222
193	0x3f8f16d1fe8fe86b	0.015180245
194	0x3f8d616372403956	0.01434591
195	0x3f88e3de83a5dec4	0.012153376
196	0x3f82e4770d7d9705	0.009224825
197	0x3f79541008c7e0e6	0.006183684
198	0x3f6bc0e7ff3cbd74	0.0033878833
199	0x3f50f216040eb294	0.0010342803
200	0xbf488ee3fd4fd560	-0.00074945576
201	0xbf5f293d84fe7e8c	-0.0019019223
202	0xbf63f0371b5b6161	-0.0024338795
203	0xbf63ce2089e34331	-0.002417625
204	0xbf60398438bce887	-0.001980551
205	0xbf554a8e35e6ab6b	-0.0012995137
206	0xbf42bb42e8863175	-0.0005716397
207	0x3f05f99001ad7544	4.1913707e-05
208	0x3f3edc73fdb67635	0.0004709037
209	0x3f48b2c4fde74730	0.00075373286
210	0x3f50682ff62f1f3c	0.0010014027
211	0x3f55badef9fb222d	0.0013262918
212	0x3f5d27dbf322a55b	0.0017795227
213	0x3f6320bb83c695f3	0.002334944
214	0x3f67f4e3037f6d47	0.0029243883
215	0x3f6c9c5dfb252842	0.0034925304
216	0x3f7082371ec78dc0	0.004030433
217	0x3f72b44320e390b9	0.0045664427
218	0x3f74fe4e5cd6dbf4	0.0051253377
219	0x3f774cb257a2f687	0.005688378
220	0x3f79542dc006dfa6	0.0061837947
221	0x3f7aa9bfbdabd8c8	0.0065095415
222	0x3f7ae3a341d2cd06	0.0065647485
223	0x3f79aa87c2457920	0.006266146
224	0x3f76b8549ab6fafe	0.005546885
225	0x3f71cf83357f12db	0.00434829
226	0x3f655faf3d19e6dc	0.0026091025
227	0x3f3014b0044ce851	0.0002453737
228	0xbf67ac7b0230b017	-0.0028898623
229	0xbf7cf8133d17ba3b	-0.0070725204
230	0xbf8a3005dfc68239	-0.012786909
231	0xbf9544fd8b05ad13	-0.02077099
232	0xbfa0591d1f1713e5	-0.031929884
233	0xbfa80b9dff152fa3	-0.046963632
234	0xbfb0ca63e6da3f26	-0.06558823
235	0xbfb5eec443665c2a	-0.08567454
236	0xbfba7f39c6f61e2a	-0.10350381
237	0xbfbda8cc1190f709	-0.11585689
238	0xbfbf372a38b8ae32	-0.1219355
239	0xbfbf77b4ed5d1026	-0.12292033
240	0xbfbecd890a55437e	-0.12032372
241	0xbfbd737a7612d6c7	-0.11504331
242	0xbfbb787bbcb9da2c	-0.10730718
243	0xbfb8d6350067d9d9	-0.09701854
244	0xbfb5926c3e41af22	-0.084265485
245	0xbfb1e020e7812e13	-0.06982618
246	0xbfac524b0412e7c2	-0.055315346
247	0xbfa5e53dc3154f2e	-0.042764597
248	0xbfa163398b3c08c5	-0.03396015
249	0xbf9ebed0e0adaa48	-0.03002478
250	0xbfa007f67fb4d240	-0.031310752
251	0xbfa3229a229a4d8d	-0.037373368
252	0xbfa80cec21a6c3cf	-0.04697359
253	0xbfaddf2dbc3fa5a1	-0.058343343
254	0xbfb1e17ca0ff2d61	-0.069846906
255	0xbfb4a4e09f9281f8	-0.08064083
