mumax3/Stray field resources/stray_field_v6_small_128_xie.out/B_demag_75mT_layer2.npy (npy, 131200 bytes, 1 tensors)

array f8 [128, 128]
0	0x3f908fa63f891bb7	0.016172979
1	0x3f930a6f08903632	0.018594489
2	0x3f965625b7b0c210	0.021813001
3	0x3f9abb53418a52c4	0.026105214
4	0x3fa045366af61820	0.03177805
5	0x3fa4001e32f0ee14	0.0390634
6	0x3fa87f4a0d146593	0.04784614
7	0x3fad3c64e02975f0	0.057101395
8	0x3fb063be80d9af33	0.064021975
9	0x3fb03beec39799e5	0.0634145
10	0x3fa925ef41b0934a	0.049117543
11	0x3f934ae58179923d	0.018840395
12	0xbf95db36bf513097	-0.021344047
13	0xbfaec60b3c9f17b3	-0.060104705
14	0xbfb6dbd0e12e83a1	-0.089291625
15	0xbfbb836d076a578d	-0.10747415
16	0xbfbdfdcd75bf1ee4	-0.11715397
17	0xbfbf196dfefae121	-0.121481776
18	0xbfbf743281dd654b	-0.12286678
19	0xbfbf6fc3a118d8ae	-0.122799136
20	0xbfbf3f01f3752d29	-0.12205517
21	0xbfbef3e798d5fa48	-0.12090919
22	0xbfbe87357e670e2c	-0.119250625
23	0xbfbdd9b4bcb5a86e	-0.11660318
24	0xbfbcb0becf332e81	-0.11207192
25	0xbfbab17bb8881c44	-0.10427068
26	0xbfb7627dce8ceb60	-0.09134661
27	0xbfb24294bed83149	-0.071328446
28	0xbfa61902856b6452	-0.04315956
29	0xbf8164485401b4e1	-0.008492055
30	0x3f9bdeb5fac5a5de	0.027216762
31	0x3fad06c51eb62c2a	0.056692276
32	0x3fb3342cad5d1ae3	0.07501487
33	0x3fb4fd504d4a60a1	0.08199026
34	0x3fb4b858cc74e32c	0.08093791
35	0x3fb37632e22a820a	0.07602232
36	0x3fb211bec44b73f2	0.07058327
37	0x3fb11b56617a5d2d	0.066823386
38	0x3fb0ec9a728786f2	0.06611028
39	0x3fb1b668316cb489	0.06918956
40	0x3fb35e8d291ddb88	0.07566149
41	0x3fb4e12cc0a85142	0.081560895
42	0x3fb2de7845e1e187	0.07370712
43	0x3f9d2bda45d39637	0.028487597
44	0xbfab679087f8068c	-0.05352451
45	0xbfbe06f09f8fd2c6	-0.117293395
46	0xbfc1551301e55d67	-0.13540876
47	0xbfc04c4802224423	-0.12732792
48	0xbfbcb4dbbf58f0dd	-0.11213468
49	0xbfb9046a72e57ac4	-0.09772363
50	0xbfb60c9e5e7a5ec1	-0.086130045
51	0xbfb3ce6e8d7c54e5	-0.07736865
52	0xbfb2290405483e5d	-0.07093835
53	0xbfb0f91b5f56fd93	-0.06630107
54	0xbfb0214620cba789	-0.06300772
55	0xbfaf16400858bf09	-0.06071663
56	0xbfae4d4b62540815	-0.05918346
57	0xbfadd214346a6ad8	-0.0582434
58	0xbfad96f95ed9b2c2	-0.057792466
59	0xbfad93f8c5cf01b0	-0.05776956
60	0xbfadc4c76fc0ad2f	-0.05814193
61	0xbfae276efc2e869e	-0.058894604
62	0xbfaebbc18410bdb5	-0.060026214
63	0xbfaf836d8843b0da	-0.06154959
64	0xbfb0416149461a16	-0.06349762
65	0xbfb0e0eec2c0da50	-0.0659322
66	0xbfb1a7274bc95721	-0.06895681
67	0xbfb29e83b9329122	-0.07273124
68	0xbfb3d66eb717d9bb	-0.07749073
69	0xbfb56494d50ebaae	-0.083566
70	0xbfb7659fc1fcba25	-0.09139441
71	0xbfb9fb294116f692	-0.101488665
72	0xbfbd3ff6ffc002ff	-0.114257276
73	0xbfc08f6187597b1b	-0.12937564
74	0xbfc26d3b8237275f	-0.14395851
75	0xbfc2fdad3f68cb9b	-0.1483666
76	0xbfbf4b33b005c1b6	-0.12224124
77	0xbfaaac1e009c0732	-0.0520944
78	0x3f98d8297fdebb14	0.024262093
79	0x3fae73a81862776e	0.05947614
80	0x3faf63972926ead0	0.06130669
81	0x3faa9192feb99db5	0.051891893
82	0x3fa55b8b636d5a18	0.041714054
83	0x3fa1177f3c64f9ef	0.033382393
84	0x3f9b9393f9a5259c	0.026930153
85	0x3f967fc282f1e25b	0.02197174
86	0x3f92a3ac05f1a05b	0.018202484
87	0x3f8f869a04f0ccff	0.015393451
88	0x3f8b4f808a98b98f	0.013335232
89	0x3f88394b0b7d47e6	0.011828028
90	0x3f85eaac7e1a2ea2	0.010701511
91	0x3f84236683e4f3d7	0.009833146
92	0x3f82bb78081bcfb7	0.009146631
93	0x3f8199db1926feae	0.008594238
94	0x3f80ab9885d9847c	0.008139793
95	0x3f7fc146ff0f6194	0.007752683
96	0x3f7e5a1bfccc1e1a	0.0074101537
97	0x3f7d1482fe5380d1	0.0070996396
98	0x3f7bec5600c7e3f5	0.0068171844
99	0x3f7ae263f4018044	0.006563559
100	0x3f79f94200128ff4	0.0063412264
101	0x3f7933427cc631fb	0.0061524007
102	0x3f78920803435145	0.0059986413
103	0x3f7816210fd64807	0.005880479
104	0x3f77bf59fcde7df3	0.0057977214
105	0x3f778c93f7992931	0.0057493
106	0x3f777c6f002cba62	0.0057339035
107	0x3f778d213ea8ad14	0.0057498263
108	0x3f77bcea7e23f775	0.0057953987
109	0x3f780a0bfccb5db0	0.0058689564
110	0x3f78730607002468	0.00596907
111	0x3f78f6870e045832	0.006094482
112	0x3f7993c8fdbde404	0.0062444545
113	0x3f7a4a70f8a1ce02	0.006418649
114	0x3f7b1af40181fbbc	0.0066175014
115	0x3f7c068302d28def	0.0068421476
116	0x3f7d0f62fd02fe15	0.007094752
117	0x3f7e38d9fe4820d4	0.0073784366
118	0x3f7f877e0e22d872	0.007697575
119	0x3f8080a2b8e3471e	0.008057853
120	0x3f81571a7f436846	0.008466918
121	0x3f824c73f6f2bb1e	0.008934885
122	0x3f8367f27165e2a2	0.009475607
123	0x3f84b3b9f8ac1b1e	0.010108426
124	0x3f863e4d8ff82791	0.010861021
125	0x3f881c7a09308050	0.011773065
126	0x3f8a6c4abd23c898	0.012901863
127	0x3f8d58d4be99ea5e	0.014329588
128	0x3f8e290b4d4c4a42	0.014726723
129	0x3f912c3afa049bfa	0.016770288
130	0x3f93e867bb83acd1	0.019441243
131	0x3f977f8fbe5fb2d4	0.022947546
132	0x3f9c3118038a81ac	0.027531028
133	0x3fa11ce33aa2684a	0.03342352
134	0x3fa4daf7b2d47e1c	0.04073309
135	0x3fa9321ae2e2ec52	0.049210396
136	0x3fada05951550743	0.05786399
137	0x3fb08473febb9883	0.064521074
138	0x3fb0d4f1896faade	0.06574926
139	0x3fad9fc70537a259	0.05785963
140	0x3fa41186207c3292	0.039196197
141	0x3f88d907900ea2d2	0.012132701
142	0xbf9219e638b7343d	-0.017676923
143	0xbfa6cbffc84cb565	-0.04452514
144	0xbfb0b46caea9f70a	-0.06525306
145	0xbfb4552a3e6cf826	-0.079424515
146	0xbfb689449dfae372	-0.088032044
147	0xbfb7a2054df2a727	-0.09231599
148	0xbfb7dbd4c151b340	-0.093198106
149	0xbfb753cd8787c938	-0.09112248
150	0xbfb6081b826778e0	-0.08606121
151	0xbfb3dc3abe6ce2ac	-0.077579185
152	0xbfb0a1b6f47359ea	-0.06496757
153	0xbfa8572e7edd4483	-0.047540143
154	0xbf99cdf9f37684c2	-0.0251998
155	0x3f4b4f460040cad2	0.00083342474
156	0x3f9c56e945d44a9b	0.02767529
157	0x3faa5177fdf9a6b1	0.051402807
158	0x3fb18cda188fc3d8	0.06855548
159	0x3fb3df1d067610d3	0.07762319
160	0x3fb4555547044b69	0.07942708
161	0x3fb3859b0a0714f2	0.07625741
162	0x3fb2184820553511	0.07068301
163	0x3fb0977f0d265930	0.06481165
164	0x3faec7efee3a04df	0.06011915
165	0x3fad7df6fbca6640	0.05760166
166	0x3fadb07a30c89fc1	0.05798704
167	0x3fafa29402f08f0e	0.061787248
168	0x3fb1a02e892a60a7	0.06885043
169	0x3fb39d1d06cbf70f	0.07661611
170	0x3fb36b1b81e69f87	0.07585308
171	0x3fa812eae942794c	0.04701933
172	0xbf95dfbfee97f8b0	-0.02136135
173	0xbfb808f45f26c5d6	-0.093886636
174	0xbfc0724a09e45a5d	-0.12848783
175	0xbfc0a75935506ed8	-0.13010707
176	0xbfbe4972ff6ac890	-0.118308246
177	0xbfbab3efb128568b	-0.10430811
178	0xbfb7911840be8c17	-0.09205772
179	0xbfb516133cc8b338	-0.08236809
180	0xbfb3346435b497cd	-0.07501818
181	0xbfb1cdef213584c7	-0.069548555
182	0xbfb0c600c0445341	-0.065521285
183	0xbfb005ec41f6df34	-0.062590376
184	0xbfaefae700438b8a	-0.060507983
185	0xbfae43a24132fb2a	-0.059109755
186	0xbfadd8c14424ea68	-0.058294334
187	0xbfadb2927db5514a	-0.058003023
188	0xbfadcce26020c0da	-0.058203768
189	0xbfae25a203a90a83	-0.058880866
190	0xbfaebc703343cf38	-0.06003142
191	0xbfaf92e883144fa1	-0.061667696
192	0xbfb056c6a0b8c7b2	-0.063824095
193	0xbfb10a8bca232447	-0.06656717
194	0xbfb1ec0f88333fc8	-0.07000825
195	0xbfb3067d47a961e4	-0.07431777
196	0xbfb469e2f2a8ff68	-0.0797407
197	0xbfb62bd4c513c5db	-0.08660631
198	0xbfb866489ed542bd	-0.095310725
199	0xbfbb30cf80b14054	-0.10621354
200	0xbfbe89cf4c2e00ef	-0.11929031
201	0xbfc10affe34f9b1e	-0.13314818
202	0xbfc2427c66d8d214	-0.14265399
203	0xbfc14b464f6fa9dc	-0.1351097
204	0xbfb79f117dabd256	-0.09227094
205	0xbf920823ffa85b17	-0.017609179
206	0x3fa632d412bc4540	0.04335654
207	0x3fb0670821e27de4	0.06407214
208	0x3faebde2bde99ed9	0.060042463
209	0x3fa9635680591a92	0.049586013
210	0x3fa49aaa3ad18d26	0.0402425
211	0x3fa0ef3b61aaead0	0.033075195
212	0x3f9c0b34c50c41b5	0.027386498
213	0x3f973ff6bb07d35e	0.02270494
214	0x3f935f5df84793ac	0.018918484
215	0x3f90600b474ab118	0.015991379
216	0x3f8c513cc4bd9ae7	0.013826823
217	0x3f891efa388d31a4	0.012266116
218	0x3f86ce477ecd431d	0.011135634
219	0x3f8512faa5f06174	0.010290106
220	0x3f83b8f46c92bf24	0.009630117
221	0x3f829fb0c617373a	0.009093648
222	0x3f81b145cc81bd1e	0.008638902
223	0x3f80dd227ccefffa	0.008234281
224	0x3f8017d87d9ed608	0.007857982
225	0x3f7eb846fea325e3	0.0074999593
226	0x3f7d543001453c85	0.0071603656
227	0x3f7c097301908a0d	0.006844949
228	0x3f7adf650875f8de	0.006560702
229	0x3f79dbe07e1408f5	0.0063132066
230	0x3f79026172fb63fe	0.006105786
231	0x3f7854207f00b00c	0.0059396047
232	0x3f77d0a8f1c8a71b	0.005814228
233	0x3f77761dffca6f07	0.0057278797
234	0x3f77422c0e3fa29c	0.005678341
235	0x3f773210fe92de0d	0.0056629814
236	0x3f77432100c56696	0.0056792535
237	0x3f7772e5fb9ceee4	0.00572481
238	0x3f77bf4800aa06eb	0.0057976544
239	0x3f782689ff08387d	0.0058961287
240	0x3f78a78901ad0f7e	0.006019149
241	0x3f7941a301850cdb	0.0061661117
242	0x3f79f4f7fdecc428	0.006337136
243	0x3f7ac24d05dbfbd9	0.006532956
244	0x3f7bab5a02cd3143	0.0067552105
245	0x3f7cb2c5f6aafdd6	0.007006429
246	0x3f7ddc390ca23607	0.007290099
247	0x3f7f2cd0fde5c7bb	0.0076110996
248	0x3f8055b53e3ace32	0.007975975
249	0x3f8130a3bf6aed11	0.008393554
250	0x3f822d8631432a32	0.008875893
251	0x3f8355224ee7f82a	0.009439724
252	0x3f84b3bd76068646	0.010108452
253	0x3f865aa60b396675	0.010915086
254	0x3f8862320a7a688d	0.011906043
255	0x3f8aec84c56e8109	0.013146436
