mumax3/Stray field resources/stray_field_v9_FeCo_4_4.out/B_demag_50mT_10K_FeCo_4_4_layer2.npy (npy, 524416 bytes, 1 tensors)

array f8 [256, 256]
0	0xbfaed92a420caea9	-0.060250588
1	0xbf96edaff149d9be	-0.02239108
2	0x3f72396e0233835d	0.0044493005
3	0x3f9f04387c7bda1f	0.030289538
4	0x3fa84f377e4f18f5	0.047479376
5	0x3fac0fcca6b73968	0.05480804
6	0x3fabb03d41766458	0.054078974
7	0x3faad927f9ef19d4	0.05243802
8	0x3fa9a29dcf335974	0.05006879
9	0x3fa96e6d9be4cd75	0.049670625
10	0x3fa8fa020f23df58	0.04878241
11	0x3fa90bc17f3bca5c	0.048917815
12	0x3faa77b8f427da90	0.05169466
13	0x3fabb014c1695290	0.054077767
14	0x3faad1e6bd0de7f5	0.05238267
15	0x3fabd7ac4ed2f6dd	0.05437983
16	0x3fb08393f3bd5185	0.06450772
17	0x3fb11c0d7cc044ff	0.0668343
18	0x3fadfb11bfd72c32	0.058556132
19	0x3facd0613d17f4a5	0.056277312
20	0x3fa8e1b1243e927c	0.048596893
21	0x3f9d9f96e7404924	0.028929098
22	0x3f829115bc7fcd96	0.00906579
23	0xbf8bc2d33501fb94	-0.013555193
24	0xbfa5b7b041371323	-0.042417057
25	0xbfb0751078483b2d	-0.06428626
26	0xbfb5ab3b422060f4	-0.084644035
27	0xbfb8502404c206a0	-0.09497285
28	0xbfbb810d30c01153	-0.10743792
29	0xbfbd803d40ecf3f8	-0.115238026
30	0xbfbddf850b42286f	-0.11669189
31	0xbfbeab52ff8154ff	-0.1198017
32	0xbfbe6f77b2133816	-0.11888836
33	0xbfbf057b7f7d38bb	-0.121177405
34	0xbfc0884e989460f6	-0.12915976
35	0xbfc0efe179d8083f	-0.13232058
36	0xbfc116410a0b71a3	-0.13349164
37	0xbfc16246c70ec7c4	-0.13581166
38	0xbfc159f7174e2552	-0.13555802
39	0xbfc0a64f4a1521fb	-0.13007537
40	0xbfbf7e8972dae8ef	-0.12302455
41	0xbfbd2b6b019a78ab	-0.113943756
42	0xbfba374881232b28	-0.102406055
43	0xbfb49a301774e6b2	-0.08047772
44	0xbfa8b0d5a05afed4	-0.04822414
45	0xbf8a4246cc6d2b7d	-0.012821725
46	0x3f93e08b79230a24	0.019411258
47	0x3fa816946c083be4	0.04704727
48	0x3fb00ab3b828d0da	0.0626633
49	0x3fb19595a8f42a8a	0.06868873
50	0x3fb2ad144abab94f	0.07295348
51	0x3fb2d0b83ecb41dd	0.07349731
52	0x3fb2b0e6bd38db13	0.0730118
53	0x3fb32528d96810b6	0.07478576
54	0x3fb31769d40423a6	0.07457601
55	0x3fb2638d7f40383b	0.071831554
56	0x3fb11b219982c872	0.06682024
57	0x3fae8324fcd3698e	0.059594303
58	0x3fa5d955e0f6ea1c	0.042673763
59	0x3f91a332dbb0a68d	0.017224116
60	0xbf8c64f9877384e6	-0.013864469
61	0xbfa82846bd760f1d	-0.047182284
62	0xbfb3cda1b3ef5b42	-0.07735644
63	0xbfbbc5d2a166dc47	-0.108487286
64	0xbfc13ef080b11561	-0.13473326
65	0xbfc353a94a66ab86	-0.15099064
66	0xbfc4be68458eaa7d	-0.16206077
67	0xbfc4a3bcc89dbe16	-0.16124687
68	0xbfc39891c73d40d3	-0.15309355
69	0xbfc27584fcd47c6f	-0.14421141
70	0xbfc2004abe144d3f	-0.14063391
71	0xbfc0fff2691394dd	-0.13281088
72	0xbfbff95adfca806c	-0.124898605
73	0xbfbcb2df0ff062ff	-0.11210436
74	0xbfb928da94b685e4	-0.09827963
75	0xbfb4501038b24e1b	-0.07934667
76	0xbfad601d7fa051cd	-0.057373926
77	0xbfa1bae95bb4edc4	-0.034629147
78	0xbf92f18286241352	-0.018499412
79	0x3f70ebc782c3bbc2	0.0041311067
80	0x3f9a6db56527212c	0.02580913
81	0x3fa0ed1781373359	0.033058867
82	0x3fa78fd1c4ae454d	0.04601913
83	0x3faf51c874a36aff	0.06117083
84	0x3fb1f247db8bd764	0.07010316
85	0x3fb37af0a193382c	0.076094665
86	0x3fb4f7f47efe9ee8	0.081908494
87	0x3fb47210ff00d18c	0.079865515
88	0x3fb3978a75ba415a	0.07653108
89	0x3fb33664c0f4d24f	0.07504873
90	0x3fb485820a86c1a6	0.08016217
91	0x3fb4c05cd1e814a7	0.08106022
92	0x3fb51624af8ccaff	0.08236913
93	0x3fb53af31b152f3c	0.08293075
94	0x3fb4bcee32782251	0.08100785
95	0x3fb4689641756b3c	0.07972087
96	0x3fb3e2d2c88f506a	0.0776798
97	0x3fb3507ec887eea1	0.07544701
98	0x3fb27cc9aa2d9087	0.07221661
99	0x3fb161cba1ff6eb6	0.06789849
100	0x3fb10ec08d236992	0.06663135
101	0x3fb0e4c6019b4f6b	0.065990806
102	0x3fb0c89a38250a7c	0.06556095
103	0x3fb0e482202b43a6	0.06598676
104	0x3fb046cf72439454	0.06358048
105	0x3faf61e6e10650e3	0.061293807
106	0x3fb00ff5ec55d41d	0.06274354
107	0x3fb034640ac17a08	0.06329942
108	0x3fafd012c13c8f97	0.062134348
109	0x3faf849cc380d9eb	0.061558627
110	0x3fad95949eaa71fb	0.057781834
111	0x3fabf1a5744348d5	0.05457799
112	0x3fad23217e661da7	0.056908652
113	0x3faf0b62b4ab17f1	0.06063374
114	0x3fae4afd5ceb1b1f	0.059165876
115	0x3fa71937226fdb49	0.045114253
116	0x3f90fb330077380a	0.016583249
117	0xbf96bb2881f6b21b	-0.022198327
118	0xbfb000e481745ecd	-0.06251362
119	0xbfb96776b1b81e6a	-0.09923498
120	0xbfbf719d7c2742e5	-0.12282738
121	0xbfc21b62dcef03d9	-0.14146076
122	0xbfc301bac02fdb65	-0.14849028
123	0xbfc3280501c7805d	-0.1496588
124	0xbfc3306f08a1643e	-0.14991558
125	0xbfc2d192595e6b1a	-0.14702062
126	0xbfc294515b3c66b9	-0.1451513
127	0xbfc2a71da62e2786	-0.14572497
128	0xbfc2f74835f9b711	-0.14817145
129	0xbfc31d4001cdb580	-0.14933014
130	0xbfc39b2204e292dd	-0.15317178
131	0xbfc3cabe7fad0963	-0.15462476
132	0xbfc3471669f9c3d1	-0.15060692
133	0xbfc3058321b30322	-0.14860572
134	0xbfc257aa0b00e502	-0.1433003
135	0xbfc08b30b5aa7158	-0.12924775
136	0xbfbb03d31e4a98d5	-0.10552711
137	0xbfb20039b6afffe2	-0.07031594
138	0xbf972a4f0065a2e9	-0.022622332
139	0x3f95947802d73110	0.021074176
140	0x3fa97ac6f094d30b	0.04976484
141	0x3fb11d0e02cd0ee7	0.06684959
142	0x3fb3f84c2c7e6332	0.07800747
143	0x3fb4f2b26496ad81	0.08182826
144	0x3fb4682786acacf2	0.07971427
145	0x3fb374e88a428e9b	0.07600263
146	0x3fb25705a052f13f	0.07164035
147	0x3fb1c73c9506b7d5	0.06944636
148	0x3fb1989186d0942d	0.06873426
149	0x3fb0a62949fb4bbb	0.06503542
150	0x3faf92f8c09b9116	0.06166818
151	0x3fafe6c9782e8fe0	0.06230764
152	0x3faf79f23465625a	0.06147725
153	0x3fafe80ee15e1828	0.062317338
154	0x3fb0101d84754526	0.0627459
155	0x3faec2075d27b48b	0.060074072
156	0x3faeeda2fd92dfb9	0.060406774
157	0x3fb091e87549d912	0.06472638
158	0x3fb0ff62cc280c39	0.06639688
159	0x3fb0ea9a010c5e4c	0.066079736
160	0x3fb1637dfeb379c0	0.06792438
161	0x3fb2409bc054324b	0.071298346
162	0x3fb2e97c9fa79473	0.073875226
163	0x3fb2ef5aec34c707	0.07396477
164	0x3fb2d113029129de	0.07350272
165	0x3fb1e03eef7efe63	0.06982797
166	0x3fb1cda4b9077311	0.06954412
167	0x3fb2dc2ce713cae3	0.07367211
168	0x3fb394cb7e990d2d	0.07648918
169	0x3fb2dc65462adca3	0.07367547
170	0x3fb2bf65053d56a3	0.07323295
171	0x3fb2a070a35630e4	0.07276062
172	0x3fb1a7d1c0a77a83	0.06896697
173	0x3faf1e888143617f	0.060779825
174	0x3faa531174f2704a	0.05141501
175	0x3fa547655e177c37	0.041560333
176	0x3f9eb57ce0369d31	0.029989196
177	0x3f93de9c580fe174	0.01940388
178	0x3f82654e8e5872de	0.00898229
179	0x3f4ce327f3882431	0.0008815713
180	0xbf65ec5a04231263	-0.0026761778
181	0xbf822337008c05cc	-0.0088562295
182	0x3f58a6080433d5eb	0.0015044287
183	0x3f8ec67e7f0bf9b3	0.015027035
184	0x3f938d6377c0f926	0.019094042
185	0x3f9c281061c46292	0.027496582
186	0x3fa2e94962d31193	0.036936086
187	0x3fa6d825f1564404	0.04461783
188	0x3faba4a95bf334af	0.053990643
189	0x3fae1a853c6a6980	0.058796085
190	0x3fabeba52184817c	0.054532204
191	0x3facaab84fe81fba	0.05598999
192	0x3faba11ff5beb384	0.05396366
193	0x3fac3db313e91604	0.05515823
194	0x3fad7ed07bbf2454	0.057608142
195	0x3fad83733c8da4ef	0.05764351
196	0x3fae63f5c02d7982	0.059356384
197	0x3fb04d6ff55b6150	0.0636816
198	0x3fb0d2a99f64f96e	0.065714456
199	0x3fb0a8cbbbaabb80	0.06507562
200	0x3fb08adb90b4ee8a	0.0646188
201	0x3fb0f68b0c381ca7	0.06626195
202	0x3fb1060c1e1b73fa	0.066498525
203	0x3fb0e2b9f4021ae2	0.06595957
204	0x3fb10fe17479a487	0.06664857
205	0x3fae1b96a333e5fa	0.058804233
206	0x3fa7b30c874ce5e2	0.04628791
207	0x3f9cfea220c083ad	0.028315099
208	0x3f817c833350ba58	0.00853827
209	0xbf8ac3170543fb71	-0.013067417
210	0xbf9f3931d872d0e1	-0.030491618
211	0xbfa946f07f597c73	-0.04936935
212	0xbfaed1e3b7f5d026	-0.06019508
213	0xbfb16add9978b777	-0.06803689
214	0xbfb4ebf98dcb044b	-0.08172569
215	0xbfb93b873fa4db97	-0.09856458
216	0xbfbc926bfdd5027b	-0.11160922
217	0xbfbc912d397414fb	-0.11159022
218	0xbfbc66ab04d0f526	-0.11094159
219	0xbfbc659be6250d81	-0.11092543
220	0xbfb9f13059641f64	-0.1013365
221	0xbfb6438916bf8a19	-0.08696801
222	0xbfb1bb1efa6c1755	-0.06926149
223	0xbfa4489bd02aa545	-0.03961646
224	0xbf746c99fe90b693	-0.004986383
225	0x3f979a941e0d39d8	0.023050608
226	0x3fa511313bf35c6a	0.041146792
227	0x3fab93b7ad55e40d	0.05386137
228	0x3fb0b3497f362740	0.065235704
229	0x3fb2c1f50275fc06	0.07327205
230	0x3fb3c7f044204067	0.07726957
231	0x3fb41ebbace9d876	0.07859395
232	0x3fb4ed0c884e9894	0.08174208
233	0x3fb56c5f79b827cf	0.08368489
234	0x3fb489bcacc418c9	0.0802267
235	0x3fb41a618022a51c	0.07852754
236	0x3fb268ae6a3629b3	0.07190981
237	0x3faceabd4da8d54c	0.05647842
238	0x3fa194239f27b435	0.034333337
239	0x3f724c4e8494c719	0.004467303
240	0xbf99d3bbff4a228e	-0.025221765
241	0xbfaabec7c03756f3	-0.052236788
242	0xbfb6b6904a657ee0	-0.0887232
243	0xbfbd8e17047e69e8	-0.11544937
244	0xbfc085533b9150a0	-0.12906876
245	0xbfc22e06f96e6b6e	-0.14202964
246	0xbfc2e1cd7a71b626	-0.14751595
247	0xbfc348457e8f5218	-0.15064305
248	0xbfc373ed78130c21	-0.15197533
249	0xbfc397b858768ea8	-0.15306763
250	0xbfc3dbdac7365fe3	-0.15514693
251	0xbfc3d994865f5525	-0.15507752
252	0xbfc388d3b9252529	-0.15261313
253	0xbfc20bff11c376e3	-0.1409911
254	0xbfbe8f846ce1aaaa	-0.1193774
255	0xbfb7cbbfb1864a5c	-0.09295271
