mumax3/Stray field resources/stray_field_v9_FeCo_4_4.out/B_demag_100mT_10K_FeCo_4_4_layer2.npy (npy, 524416 bytes, 1 tensors)

array f8 [256, 256]
0.043968692 0.041273147 0.040701196 0.041721344 0.044581108 0.04772123 0.048190594 0.047884233
0.047047257 0.044970542 0.04273332 0.039836533 0.04029177 0.03901349 0.032597512 0.026186377
0.023076434 0.02399609 0.026512515 0.027655687 0.024851471 0.023974216 0.022179501 0.017050173
0.015403276 0.015702702 0.0154516315 0.015997317 0.0152223855 0.012953764 0.01369885 0.017238269
0.017151006 0.016911715 0.017133243 0.020160478 0.023304153 0.027007159 0.031849418 0.037349965
0.04144674 0.043786973 0.040093295 0.038998984 0.034038723 0.012433566 -0.019051831 -0.056246974
-0.097442105 -0.13391528 -0.15627985 -0.17482392 -0.18793087 -0.19773906 -0.20508373 -0.21041907
-0.2038714 -0.18883628 -0.16296354 -0.1366586 -0.09797094 -0.05200524 -0.006924249 0.023591269
0.037775636 0.041812107 0.046743684 0.046819203 0.040099382 0.039234456 0.035112362 0.03016533
0.030694928 0.031341113 0.031952955 0.031995155 0.029120486 0.030781712 0.0314726 0.028941765
0.026869973 0.023196328 0.019917393 0.013892615 0.0067574065 0.0015192088 -0.0037266687 -0.0063599385
-0.0044277813 0.0012534298 0.008459531 0.014832381 0.02052514 0.02536962 0.026862899 0.02687435
0.02166201 0.01792525 0.019855274 0.019329358 0.016847707 0.015075926 0.0127190985 0.010876119
0.012174629 0.011048332 0.009730943 0.00908336 0.009285726 0.011661455 0.015157945 0.015099786
0.009940706 0.011513431 0.01856903 0.018414136 0.016458727 0.016895536 0.022245977 0.026620466
0.02775008 0.029795412 0.032712586 0.037493907 0.041032117 0.04367534 0.039550863 0.0345248
0.01170926 -0.027127758 -0.070818976 -0.11569056 -0.15205806 -0.18501812 -0.20279044 -0.21057534
-0.21259904 -0.2098864 -0.2094894 -0.2052665 -0.19783466 -0.18462716 -0.15801185 -0.11758946
-0.06978917 -0.02177372 0.007934939 0.027308512 0.03950575 0.043885462 0.045533642 0.04293674
0.0391561 0.033931274 0.027729638 0.029063348 0.032023452 0.030973071 0.02838746 0.025257466
0.020170242 0.020621747 0.025983386 0.031036906 0.031247098 0.031334665 0.035225887 0.040308017
0.041011367 0.04033886 0.042847134 0.046569355 0.043823674 0.03543798 0.015864473 -0.012077859
-0.045556176 -0.08305059 -0.11446591 -0.14516033 -0.16687064 -0.17854893 -0.1826194 -0.17841272
-0.16234139 -0.14312163 -0.11094942 -0.07920624 -0.045065604 -0.0095859505 0.025528245 0.045859914
0.05419998 0.054494955 0.05655705 0.055886306 0.054337665 0.0542357 0.051013727 0.04831627
0.049013082 0.050781436 0.05026061 0.050583772 0.05305625 0.055456433 0.0562161 0.055111557
0.0547669 0.058412742 0.060907416 0.060800128 0.0557916 0.05150868 0.053755865 0.054713327
0.054904737 0.05826789 0.06110535 0.061519336 0.062055595 0.06424867 0.062086448 0.061167903
0.058634065 0.04868851 0.030830609 0.00082673784 -0.04195179 -0.09481354 -0.13700809 -0.16886422
-0.19410115 -0.20821777 -0.21234033 -0.21089059 -0.20274568 -0.19630542 -0.1881665 -0.16776237
-0.13487509 -0.093201235 -0.05404882 -0.01107451 0.025858514 0.04926091 0.05470228 0.05322854
0.05146847 0.049207177 0.044084825 0.040122226 0.039252628 0.040143497 0.04016435 0.04090455
00000000: 0334 607c 1083 a63f f7d0 2201 c121 a53f
00000010: b1c7 7483 c9d6 a43f 89e2 0c00 805c a53f
00000020: 7b46 c2c1 55d3 a63f b88b 59c4 ea6e a83f
00000030: 5cdd 6802 70ac a83f 4045 753d 4884 a83f
00000040: 7fee 5cfc 9316 a83f 28c7 58fe 6006 a73f
00000050: 05f2 b247 24e1 a53f 8f90 d73c 7465 a43f
00000060: 375a e574 1fa1 a43f d23e 4e7f 93f9 a33f
00000070: a922 f1ff 9eb0 a03f d54d 4303 9ad0 9a3f
00000080: f66b 5a45 59a1 973f 39a3 2057 6e92 983f
00000090: ac57 70c3 1826 9b3f c588 dabc c551 9c3f
000000a0: 2c5a cffc a972 993f f240 ab66 b28c 983f
000000b0: e313 bf1d 39b6 963f 9f5e b4bd 9975 913f
000000c0: 74be 5eb5 c08b 8f3f 7c01 327e 5e14 903f
000000d0: 1ce1 b2df 1aa5 8f3f eddf 5ac5 9961 903f
000000e0: 05e9 1dff e92c 8f3f acba ebc5 8087 8a3f
000000f0: 2946 f185 240e 8c3f 18ec 60a6 e8a6 913f
00000100: 4939 7487 0890 913f 0289 60fb 4d51 913f
00000110: 0a0c 7079 608b 913f c516 bac6 f2a4 943f
00000120: 42e2 fb3b 0bdd 973f efc7 a6c2 c3a7 9b3f
00000130: e5cb 6921 914e a03f a20d 5ddc 881f a33f
00000140: 3bd1 a6d1 8138 a53f 3f3a 0d02 3f6b a63f
00000150: ecb4 a0bd 1b87 a43f 7ee6 b6c1 acf7 a33f
00000160: f14a 2a04 866d a13f 3cc3 bdfa c476 893f
00000170: 6bb1 4bbc 5282 93bf bf6d a843 67cc acbf
00000180: 4c78 3a3e f7f1 b8bf 7d70 04ca 2224 c1bf
00000190: 680b 6366 fa00 c4bf cbb0 7a55 a160 c6bf
000001a0: a987 4766 1e0e c8bf 81bf eb75 834f c9bf
000001b0: 3b56 a504 2f40 cabf f367 0d18 03ef cabf
000001c0: 6b7c cb41 7518 cabf 75fb 7287 c92b c8bf
000001d0: 07c5 5e41 fddb c4bf 6dcb db6c 077e c1bf
000001e0: 1425 429f 9f14 b9bf 2790 0a4a 6ea0 aabf
000001f0: 88dc 11f0 995c 7cbf 49f7 4d43 4f28 983f
00000200: 7044 6902 5457 a33f eaa0 4880 6568 a53f
00000210: 872c 26c4 c9ee a73f f368 6bc3 aff8 a73f
00000220: 6643 8ffc e787 a43f 84ee cae2 8916 a43f
00000230: 3f5c f35c 3ffa a13f 03cd 4a07 a9e3 9e3f
00000240: 0dfd a6bf 7d6e 9f3f 13e2 b53e f10b a03f
00000250: 479b 7841 235c a03f a8fd b540 ab61 a03f
00000260: f0f3 0dbc c2d1 9d3f 7b68 6bb9 3d85 9f3f
00000270: 96af 7037 2d1d a03f 1e71 a7f8 e8a2 9d3f
00000280: d21b 1e5d cd83 9b3f f3d2 9638 c7c0 973f
00000290: eeef 399e 3965 943f e2b8 a538 bb73 8c3f
000002a0: f8be c57e a7ad 7b3f eaa7 2707 06e4 583f
000002b0: 959a 1006 6487 6ebf 450b cbfd e00c 7abf
000002c0: 0d96 097e dd22 72bf 4ddc ecff 4389 543f
000002d0: 9440 e007 3b53 813f 9dd4 887a 7060 8e3f
000002e0: d1eb 2ed4 8a04 953f c508 d960 7efa 993f
000002f0: d116 b9a2 f281 9b3f 13b0 6719 f384 9b3f
00000300: fdff 0fe2 902e 963f bf2a 172a ff5a 923f
00000310: c6b6 eee1 f054 943f bbc7 d941 13cb 933f
00000320: d373 4f7a 8640 913f 96ec 0389 20e0 8e3f
00000330: 51a0 bc80 780c 8a3f 969a 4cfb 3746 863f
00000340: 04df 2a0b 03ef 883f c33c ec04 82a0 863f
00000350: c5cd 8d0f d1ed 833f 0934 1af1 4b9a 823f
00000360: 43bc ea0b 6504 833f e74a cafe f5e1 873f
00000370: 3d83 65f0 200b 8f3f 1e6f 5ff8 a2ec 8e3f
00000380: d46b 5af9 ca5b 843f f5c5 e08c 5a94 873f
00000390: e415 4682 c203 933f 69cb 9dbf 27db 923f
000003a0: 2e90 cb78 8eda 903f 3308 463a 104d 913f
000003b0: 28f3 ba3e a6c7 963f 3d43 7f3b 6542 9b3f
000003c0: 5ddb 3e58 846a 9c3f 9a81 7140 b082 9e3f
000003d0: aa3e 133e b4bf a03f 0181 bac0 6632 a33f
000003e0: d387 3361 2902 a53f f723 e239 9d5c a63f
000003f0: b126 3abe 0240 a43f 1d48 cd0d 3cad a13f
00000400: 2138 1546 06fb 873f 3ff9 b105 61c7 9bbf
00000410: 8230 db41 3121 b2bf c0ea a783 e59d bdbf
00000420: c487 6575 a376 c3bf aea0 487b acae c7bf
00000430: d7e7 de81 09f5 c9bf 3c71 52fb 21f4 cabf
00000440: e901 fb01 7236 cbbf b705 f0bb 8edd cabf
00000450: a6e8 ed74 8cd0 cabf ef70 3b34 2c46 cabf
00000460: 468e 5b69 a552 c9bf 48a1 13df dca1 c7bf
00000470: d6b2 1078 bb39 c4bf 9ee6 0dc5 571a bebf
00000480: 03d6 c3fa b3dd b1bf 61c1 3f9d d94b 96bf
00000490: cf8b 017c 3140 803f ae0a c537 c3f6 9b3f
000004a0: ff05 8200 193a a43f c2a4 1ec0 2778 a63f
000004b0: b2fa 837e 2f50 a73f fc96 31ec cdfb a53f
000004c0: 3cb8 e0b1 440c a43f c681 48a0 705f a13f
000004d0: b013 5c81 2865 9c3f c366 b044 c8c2 9d3f
000004e0: 9f0d 17be 6065 a03f fbb9 019c 67b7 9f3f
000004f0: b71a 4431 9a11 9d3f bea0 ccd9 17dd 993f
00000500: 2f39 f806 82a7 943f 2938 ce03 de1d 953f
00000510: f1f7 6f84 639b 9a3f 47c3 f480 23c8 9f3f
00000520: 5806 0540 3dff 9f3f 6aee cfe2 180b a03f
00000530: 6672 46a1 2009 a23f 742f 909d 40a3 a43f
00000540: 55fa 0e20 71ff a43f d374 ea88 4ba7 a43f
00000550: b7c0 833e 0ff0 a53f 8b0e 7141 f0d7 a73f
00000560: c3ba 3d7d 0e70 a63f 63c9 454a ed24 a23f
00000570: 5327 d0c2 c63e 903f b21c 49cb 46bc 88bf
00000580: 1705 1a9c 2353 a7bf 3da8 f6af cd42 b5bf
00000590: 0cf6 f44b a34d bdbf 9266 031b 9d94 c2bf
000005a0: 2136 bb62 045c c5bf 46fb 8afb b0da c6bf
000005b0: fcbc 4e8f 1260 c7bf 6592 cb5e 3ad6 c6bf
000005c0: c328 6b48 9ac7 c4bf 90a0 1940 cf51 c2bf
000005d0: cb00 6962 2e67 bcbf a16a 7032 dc46 b4bf
000005e0: 4b7f b5be d612 a7bf 0348 307f cca1 83bf
000005f0: afdb 9885 1324 9a3f 609d a75d f37a a73f
00000600: 0b74 168b 19c0 ab3f 7e42 0b43 c3e6 ab3f
00000610: d06a 37b0 0bf5 ac3f 30e5 2041 219d ac3f
00000620: db64 3b7c 25d2 ab3f 4024 8d1b c8c4 ab3f
00000630: 8761 39a2 781e aa3f 8987 07ff e8bc a83f
00000640: f246 8820 3e18 a93f 5653 ba3d 0600 aa3f
00000650: ba3a 7438 c2bb a93f 448a e5bc 1de6 a93f
00000660: 7c61 3255 302a ab3f 1cf6 2c1c c964 ac3f
00000670: d16f 044e 5bc8 ac3f fbad e4fd 9437 ac3f
00000680: a77d ce38 680a ac3f 1d8f 1e61 46e8 ad3f
00000690: 7994 9bbf 412f af3f cf89 b4c2 3121 af3f
000006a0: 7874 c872 b790 ac3f 44c9 1e80 585f aa3f
000006b0: 5650 4984 e385 ab3f 039f 3d9c 6203 ac3f
000006c0: 63f7 9e43 791c ac3f 22f2 e9f3 49d5 ad3f
000006d0: f8a4 b84f 3349 af3f 0b1e 6260 767f af3f
000006e0: cd1d 1e3e c0c5 af3f 9f24 76d0 9972 b03f
000006f0: b69e 5e7f cbc9 af3f 5559 e63d 6651 af3f
00000700: 2e8c 36bf 4805 ae3f 152d 484c b3ed a83f
00000710: 5da9 7b25 0f92 9f3f b6e8 19fe 2d17 4b3f
00000720: aa08 1e7c b47a a5bf da9a 843d b345 b8bf
00000730: bb30 eb28 7b89 c1bf 8ca9 2ebf 579d c5bf
00000740: c6d8 ae75 4ed8 c8bf 5d4b 4c40 e1a6 cabf
00000750: 8165 7cca f72d cbbf 40c5 8a7d 76fe cabf
00000760: 0fad 8008 92f3 c9bf c6b9 7637 8920 c9bf
00000770: d3f4 d901 d715 c8bf 3a21 53c2 3c79 c5bf
00000780: d12a 4c42 9643 c1bf 6095 4540 09dc b7bf
00000790: e024 9374 49ac abbf 6a5f 2792 3bae 86bf
000007a0: b008 d07f a77a 9a3f 71a7 d7da b938 a93f
000007b0: 91b7 3bef ef01 ac3f 7114 076d c540 ab3f
000007c0: 32ae d946 135a aa3f 4110 e3df ae31 a93f
000007d0: b1f0 3f43 4992 a63f 5a83 0681 e68a a43f
000007e0: 1688 15a3 eb18 a43f 942e 863d b08d a43f
000007f0: 4621 6ef3 6b90 a43f bae3 03f1 70f1 a43f
