mumax3/Stray field resources/stray_field_v9_FeCo_4_4.out/B_demag_75mT_10K_FeCo_4_4_layer2.npy (npy, 524416 bytes, 1 tensors)

array f8 [256, 256]
0	0x3fa7e6d6385b662d	0.04668302
1	0x3fa7ad553840b92e	0.0462443
2	0x3fa661ebbe90b022	0.043715827
3	0x3fa4f1dd1ef6dd8f	0.040907774
4	0x3fa4dec75c5bb1be	0.040762167
5	0x3fa3e976c06a829a	0.038890563
6	0x3fa2819d2391d580	0.036145125
7	0x3fa2095edf9a95ff	0.035227742
8	0x3fa21f78e38dfbce	0.035396364
9	0x3fa0ba7bbc63f3f0	0.032672755
10	0x3f9d82423a0c4055	0.02881721
11	0x3f9e5d3c01742f8e	0.029652536
12	0x3fa1be1763851bc4	0.034653407
13	0x3fa1ec671bedf236	0.035006735
14	0x3fa336e3160f60f1	0.03752813
15	0x3fa5e5c1dda7ddcc	0.042768534
16	0x3fa8301114d046aa	0.04724172
17	0x3fa8fe7942363069	0.04881648
18	0x3fa8b375e3b1eba0	0.048244175
19	0x3fa755f9ff0174c2	0.045577824
20	0x3fa263da1a124fe4	0.03591806
21	0x3f9392773b75cce1	0.01911341
22	0xbf88742d09b49ae3	-0.011940338
23	0xbfa7e3633c3a6de5	-0.046656705
24	0xbfb3388501b206ce	-0.07508117
25	0xbfb7701b5fc6a8e0	-0.091554366
26	0xbfbb4919cf5ef85e	-0.10658418
27	0xbfbe304f7e178807	-0.11792466
28	0xbfc09388de607307	-0.1295024
29	0xbfc15dcbb824ca0f	-0.13567492
30	0xbfc140bdb557bb28	-0.13478824
31	0xbfc12f3f9e259a6e	-0.13425441
32	0xbfc13d944aa53fc0	-0.13469175
33	0xbfc0c01c653b6e15	-0.13086276
34	0xbfbf7a804ec4df18	-0.12296297
35	0xbfbc3ee090790981	-0.11033443
36	0xbfb8ff3600980067	-0.09764421
37	0xbfb3934e7be3fc13	-0.07646647
38	0xbfaa25a5a35f8d7c	-0.051068474
39	0xbf9834435c28d366	-0.023636868
40	0xbeeae3fff8b4c11f	-1.2822449e-05
41	0x3f9300e1dad9887b	0.018558053
42	0x3fa2a2df9c0ff41c	0.036398876
43	0x3fa854b289d58151	0.04752119
44	0x3fa931bcbb87ab05	0.04920759
45	0x3fa807217ecd31ef	0.046929404
46	0x3fa561e02272a440	0.041762356
47	0x3fa35ad93f76e361	0.037802495
48	0x3fa3ae891d7e1dc6	0.038440976
49	0x3fa5a52ae118f8e4	0.042275753
50	0x3fa70c606092e7cf	0.0450163
51	0x3fa536007e3b557d	0.041427627
52	0x3fa340c51720d8e9	0.03760353
53	0x3fa1aacb45384368	0.03450618
54	0x3fa0e45ee4bcd88e	0.03299233
55	0x3fa067eee2dd6b92	0.032042947
56	0x3fa3a49701417c2a	0.038365096
57	0x3fa681cf810fbd96	0.043959126
58	0x3fa7356a9afe738e	0.04532941
59	0x3fa8489c3fd5f2aa	0.047428973
60	0x3fa887519879082a	0.0479074
61	0x3fa7d5499e03b699	0.04654913
62	0x3fa7e14c35b89e98	0.04664076
63	0x3fa4cff017d589b5	0.04064894
64	0x3f9d68933c5d536d	0.028719235
65	0x3f839a6455fc1c2c	0.009571823
66	0xbf92d686679644d9	-0.018396473
67	0xbfaaffbb9db69aed	-0.052732337
68	0xbfb59dcc034e3e27	-0.08443904
69	0xbfbcf6401ee52eaa	-0.113132484
70	0xbfc1b0cfd6977bdd	-0.13820837
71	0xbfc31f5e7f923170	-0.14939481
72	0xbfc3d4166d29cf06	-0.1549099
73	0xbfc354b67b26bcd8	-0.15102273
74	0xbfc1b95e45859b35	-0.13846949
75	0xbfbfdb0574b40703	-0.12443575
76	0xbfbb13fd8ddfd20d	-0.10577378
77	0xbfb4126e978d4fdf	-0.07840625
78	0xbfa38626cb1af0f2	-0.03813287
79	0xbf762c20808f42ba	-0.0054131765
80	0x3f92315b41c51c54	0.017766405
81	0x3fa2bcabed59344f	0.0365957
82	0x3fa9bcd35a858794	0.05026875
83	0x3fac8dd77fbf6415	0.055769667
84	0x3fad8154a94f9a1c	0.05762734
85	0x3fab172d99156542	0.05291121
86	0x3faaa0dc1ce5adb3	0.052008513
87	0x3faaf2f23f3beedd	0.052634783
88	0x3faa7816e7f8f824	0.05169746
89	0x3fa98f43433a811f	0.049921133
90	0x3fa8a136460d2a8b	0.04810495
91	0x3fa7ad075f9ac53e	0.04624198
92	0x3fa89fe2b3e9d1eb	0.04809483
93	0x3faa207dcee2d19c	0.05102914
94	0x3fac9100ffeb6e5f	0.055793792
95	0x3fadb5b742b31425	0.058027007
96	0x3faf3d64a0a4b6ea	0.061015267
97	0x3fb0311bd6cb285d	0.06324934
98	0x3faeccd9e2dfdea2	0.06015664
99	0x3fad5c64040b7d62	0.05734551
100	0x3fabb09508bb3a7e	0.05408159
101	0x3fa8d61fc2fa2155	0.048508637
102	0x3fa910d4fe386e75	0.048956543
103	0x3fa4a83f9c199e03	0.040346134
104	0x3f9e7d6e3fcea20f	0.029775355
105	0x3f92e9d5faa68269	0.018470138
106	0x3f82e1c1f3cd3926	0.009219661
107	0x3f80a675b9da45a0	0.008129997
108	0x3f7aa330cfb43b64	0.006503287
109	0x3f74dc00bd016232	0.0050926236
110	0x3f6ae11649b23f72	0.003281158
111	0x3f66448afeb41616	0.0027182307
112	0x3f692231fee1ba1d	0.0030680634
113	0x3f7a1f36fcec4f49	0.006377425
114	0x3f8a636c722a501c	0.012884948
115	0x3f8fbeff8d47037d	0.015501019
116	0x3f97d8ec4870bab1	0.023288433
117	0x3fa1cbf58c5e9d9a	0.03475921
118	0x3fa75f3601aae126	0.045648277
119	0x3fabe105bedbc868	0.05445116
120	0x3fade1767d09ebe7	0.05836077
121	0x3fb0989c7fb92ef1	0.064828664
122	0x3fb049c75ecec270	0.063625775
123	0x3faee416843faf06	0.060333923
124	0x3fae37b8fee4a201	0.05901888
125	0x3fac576a4189af8e	0.055354424
126	0x3fabbd7f7ce2d4a1	0.05418013
127	0x3fa912655d51eaae	0.048968475
128	0x3fa5d681bd960952	0.042652182
129	0x3fa3c7b93ca21ccb	0.038633145
130	0x3fa1f175ce8e42f9	0.03504532
131	0x3fa02bcf91a32b13	0.03158425
132	0x3f9e5e203e305eba	0.029655937
133	0x3f9a217f81956be2	0.02551841
134	0x3f9683414624044a	0.021985073
135	0x3f96a18db76bc529	0.022100653
136	0x3f99870c5f700e41	0.024929231
137	0x3f9a29a0c0dddecc	0.025549423
138	0x3f9c1979f9962e80	0.027440935
139	0x3f9ab2458465f824	0.026070677
140	0x3f99a89b6192389f	0.025057247
141	0x3f994a055cb63962	0.02469643
142	0x3f97bba8fcd2bdc1	0.023176804
143	0x3f98d369c15c22b8	0.024243977
144	0x3f9abbc83a0d6464	0.026106957
145	0x3f9d2c70878db9a3	0.028489836
146	0x3f9ef359c32ead2b	0.030225184
147	0x3fa1d4c843d11028	0.034826525
148	0x3fa411736fe43e83	0.03919564
149	0x3fa494a2a00eb9e8	0.040196497
150	0x3fa5885421eb3746	0.04205573
151	0x3fa680938e3cc42c	0.04394971
152	0x3fa7d8b89bf0ea6c	0.046575326
153	0x3fa98bef3704f9e5	0.04989574
154	0x3fa943277209dda4	0.04934047
155	0x3faa2224edf61240	0.05104175
156	0x3faa06075ea1a991	0.050827246
157	0x3fa84338b9dad7a7	0.04738786
158	0x3fa895e935e4128f	0.04801873
159	0x3fa9a1efa970a732	0.0500636
160	0x3fa9b6c34281d21f	0.050222494
161	0x3faa5a6ca1d89c28	0.051471133
162	0x3fa9719a770f2b16	0.04969485
163	0x3fa9b6ca3d36a86f	0.050222702
164	0x3fa971397e25f5b3	0.04969196
165	0x3fabbd955d85fe42	0.054180782
166	0x3fadb4842307387b	0.058017854
167	0x3fae23a13c47a654	0.058865584
168	0x3fadd13b604223d6	0.058236938
169	0x3fae45607ebd41b7	0.059123054
170	0x3faf8986d1ebc58b	0.06159612
171	0x3faff0a3fdb1d83b	0.062382817
172	0x3faf85167fc938ef	0.061562255
173	0x3faef6f0fc70c325	0.060477763
174	0x3fadd13d1eef596a	0.05823699
175	0x3fad4f723f48d166	0.057246752
176	0x3fad8544df135c8f	0.057657387
177	0x3fad18fa5e10bda4	0.056831192
178	0x3fac6ee021572c7b	0.055533413
179	0x3fac69ef432a8850	0.055495717
180	0x3fac41fa206d07eb	0.055190865
181	0x3fabeff6479a735e	0.05456514
182	0x3fab0e86ab804beb	0.0528452
183	0x3faa76149e0b880d	0.051682133
184	0x3fa9b88973dc9ba2	0.05023603
185	0x3faa665382444ea0	0.051561937
186	0x3fa905365bedcdb5	0.048867892
187	0x3fa7c6a18f874707	0.04643731
188	0x3fa7fd14125ba23d	0.04685271
189	0x3fa7195521d6a5a5	0.045115147
190	0x3fa7240b809a4cd0	0.045196876
191	0x3fa5f7461d1ac2fa	0.042902175
192	0x3fa356515f320377	0.037767928
193	0x3fa327e9c2c09e2f	0.037413888
194	0x3fa4abdc3c56727d	0.04037369
195	0x3fa4f48cda4382e2	0.04092827
196	0x3fa4eddefc607470	0.040877312
197	0x3fa49d84b5b1d321	0.04026427
198	0x3fa4ccae5dbab50c	0.040624093
199	0x3fa52d26dd421887	0.041360106
200	0x3fa5ac317f5c8a22	0.042329356
201	0x3fa62e703c0e5f50	0.043323047
202	0x3fa682f8427169a5	0.04396797
203	0x3fa65db69d13295b	0.043683726
204	0x3fa674241cc86b47	0.043854836
205	0x3fa698ff3fe69fdd	0.044136025
206	0x3fa6efc4c9732612	0.04479804
207	0x3fa6367633b8ea17	0.04338426
208	0x3fa68ec19bb8a51a	0.044057894
209	0x3fa5127bada061b5	0.04115664
210	0x3fa40640e1c785bb	0.03911021
211	0x3fa5b5bdbc8e9128	0.0424022
212	0x3fa75d7062577cd8	0.045634758
213	0x3fa70a1a2407600a	0.044998948
214	0x3fa471ef642f0732	0.039931756
215	0x3fa2a6d541657b04	0.036429085
216	0x3fa1c18a5fa6140d	0.034679722
217	0x3fa13234c1b9da68	0.033586167
218	0x3fa1a7e8bcc2689b	0.03448417
219	0x3fa15179df02f415	0.033824738
220	0x3f9e727603005453	0.029733509
221	0x3f9ce6d2a13be929	0.028224269
222	0x3f9e3890e2884251	0.029512657
223	0x3fa007f00e705b32	0.03131056
224	0x3fa0fc666d724949	0.03317566
225	0x3fa042ed7f38b415	0.031760618
226	0x3fa010cc227a4ac1	0.031378154
227	0x3fa193f40209b44e	0.034331918
228	0x3fa3af697e62a04d	0.038447663
229	0x3fa46c66859b0a07	0.03988953
230	0x3fa3b4ccfbc6b55c	0.038488775
231	0x3fa4bff5dffcbb8e	0.040527042
232	0x3fa73c979c249f83	0.045384157
233	0x3fa67b339f61262d	0.043908704
234	0x3fa4ece2fdf7ce3e	0.040869802
235	0x3fa4566a810e6e94	0.039721802
236	0x3fa28235a4d287cd	0.03614967
237	0x3f9deb27f90fc339	0.029217362
238	0x3f907767c0839348	0.016080495
239	0x3f4fb4bc21e93ac0	0.0009675902
240	0xbf96525378bcc405	-0.021798424
241	0xbfa467521eb0c52f	-0.039850775
242	0xbfac979a100c11b1	-0.05584413
243	0xbfb2a93dfc64eae6	-0.07289493
244	0xbfb3288ebf75f728	-0.07483761
245	0xbfb135c420f07f48	-0.067226656
246	0xbfb0c30f1e560169	-0.065476365
247	0xbfb0bc36d27a0ade	-0.06537192
248	0xbfaaee3642cbf149	-0.052598663
249	0xbfa03355edc844fe	-0.03164166
250	0xbf5c6b77fa0ae92a	-0.0017346069
251	0x3f93079f5ba56d37	0.018583765
252	0x3fa047cdc9f7db43	0.03179782
253	0x3fa52362fdf382bb	0.041285604
254	0x3fa6c794c35fd56c	0.044491433
255	0x3fa800d4de8b8881	0.046881344
