mumax3/Stray field resources/stray_field_v9_FeCo_4_4.out/B_demag_125mT_10K_FeCo_4_4_layer2.npy (npy, 524416 bytes, 1 tensors)

array f8 [256, 256]
00000000: 2767 19c3 4b59 a23f 034a f9ff 2735 a23f
00000010: fc55 3ed3 6429 a23f 53ea 2f47 d1fb a13f
00000020: 3395 7651 9196 a23f 6db5 a05a f1cb a03f
00000030: 7094 b781 0d18 a03f 6347 a134 edc5 9c3f
00000040: 4b51 1f62 323e 983f 90e5 8004 9556 993f
00000050: c595 504d 8bf2 9b3f 4d67 d63b a464 9a3f
00000060: dbc8 affe 539a 963f 6f0e 4407 3eb5 933f
00000070: 07d0 1a7c 9423 903f a2a2 7a03 7d36 913f
00000080: 4056 def8 54fa 913f 7139 12f3 a232 8e3f
00000090: 66de 4208 dc7b 873f 9fe2 7a0c 3dff 853f
000000a0: eac4 0ef8 36dc 873f 452e 6303 1c54 8c3f
000000b0: 14ab e80a 1483 8c3f 839b fc7e 80a1 883f
000000c0: c30c 5835 b272 863f 8740 7c00 5553 8b3f
000000d0: 00aa ff46 17a8 903f e422 6bcb 8824 913f
000000e0: d8eb 9902 f255 893f 08e8 5100 ab74 863f
000000f0: 83e4 fdb5 4564 873f 057c be33 c8c7 843f
00000100: b08d 99c0 843c 8c3f fc56 b31a 8704 963f
00000110: 73d6 35c7 aa22 9b3f eab8 593d d92d 9f3f
00000120: abeb 2f3f 60b3 a13f 20cc 975e 35ab a23f
00000130: cfb7 cb9f ebd2 a43f af8d c23f b676 a13f
00000140: 0991 de00 cbfb 943f 770c f102 c3b6 743f
00000150: e210 6500 8c8d 83bf 410a 227b 5260 9cbf
00000160: 4807 be7e 9537 abbf 0873 fdb3 cd2a b5bf
00000170: f05d f714 0854 bbbf 52fc add7 d312 c0bf
00000180: 813f bae0 259b c1bf 1b4e 1563 cb38 c2bf
00000190: f686 f357 6532 c2bf 24e3 4148 505b c0bf
000001a0: f02f 5cff a916 bdbf 5c60 addf eeda b9bf
000001b0: 3614 46cc 4f1e b2bf 6fcf f65f 1c99 a1bf
000001c0: 1cad 1449 8e50 84bf 7b56 a452 8485 7f3f
000001d0: bc63 6207 5654 993f 0970 d5d0 6119 a23f
000001e0: 6965 2dcb f873 a33f 1403 1fe1 86a8 a13f
000001f0: 42ec 0a85 21d5 a03f 64ac 9929 6ba3 a33f
00000200: bede 79b9 ba29 a43f 6c3e 37ff 72d7 a03f
00000210: 4134 2d90 2431 9e3f 8c25 219b 2865 9f3f
00000220: 12ba 8dfe 7ece a13f 2aa0 58c0 6798 a43f
00000230: 2e29 4e20 b269 a53f 7b0c 687f 2616 a63f
00000240: faac d2e0 2dc5 a33f 8f22 381c 00eb 9d3f
00000250: eac0 cf3e aaef 893f 864f 21f4 bf9e 93bf
00000260: 76f9 5ac0 9952 b0bf c6e7 463f b723 bfbf
00000270: ef48 8a02 5c14 c6bf 876c de40 9a14 cabf
00000280: aff7 d15f 9e84 ccbf 625a c445 2895 cdbf
00000290: c113 a37c 7b36 cebf 5eae f2c2 a57c cebf
000002a0: 1ec1 aea2 1635 cebf bda4 7376 191b cdbf
000002b0: bb2b 161a e31e cbbf 1fc3 bef8 fdf6 c7bf
000002c0: d55f 2b78 3cf3 c3bf 277c 009c 2853 bcbf
000002d0: 7161 af40 8cc1 aebf be78 2061 0114 95bf
000002e0: 9994 fe7e aab3 763f 4fed 1b7e 8824 9a3f
000002f0: 6700 fb2a f167 a13f cb72 5b20 1671 a33f
00000300: e9f5 5ce3 89d9 a33f 3896 c61b d8ab a13f
00000310: ea0f cf3d e460 9e3f d17d db41 5ca1 9a3f
00000320: ad2f a084 8a8b 963f c08b 4fe5 da6e 933f
00000330: 98f2 b7c3 7a31 913f 3180 67b0 e656 8d3f
00000340: 463c e13e d595 8d3f c4fb c041 ba59 8d3f
00000350: 956e b5c8 22bf 853f 20a5 77c9 b60e 853f
00000360: 65b0 dae3 224a 853f 6503 d2c6 5df9 823f
00000370: ec9a a2b9 d45c 843f b5e4 98fc b429 893f
00000380: 47bb f58d f411 883f 65f8 d36f f46b 863f
00000390: 044c c739 3d31 8b3f cb49 287d 21e4 8c3f
000003a0: 35ff d300 ea75 853f 14cc e07c e6c4 7c3f
000003b0: a9f7 91b1 9327 7c3f ffab effc 59e5 763f
000003c0: 478c 063f 5d1c 803f 80cd ae85 9d85 8c3f
000003d0: ddd3 6881 5c33 903f 3d4d a067 3723 903f
000003e0: b639 c6fc 79a6 913f d420 ae97 047a 953f
000003f0: 6eee 91c8 9c39 983f 9888 96c0 d63a 993f
00000400: e585 2079 7ab4 973f aa9a fa22 9c74 993f
00000410: 89c0 9341 ae07 9b3f ca47 c7df 3a22 9c3f
00000420: c5c5 b4e3 44c3 a03f 42fb e923 164f a33f
00000430: b171 7e3c 5450 a43f adc4 9c9d 957f a23f
00000440: 5bb7 5018 e5b0 9b3f 0776 0efb c3ea 853f
00000450: 0bfa dd04 7751 9cbf aee6 d33f 958e b7bf
00000460: b9ed 1039 5c2f c4bf cded dab5 ef17 cabf
00000470: 4b64 3801 fa3b cdbf 346e c559 6c6e cfbf
00000480: 818d d242 550e d0bf ef2c eefd 15cb cfbf
00000490: 044f 29c8 3271 cebf 98b1 570e e324 cbbf
000004a0: 40db cd00 d547 c6bf 2fd7 263e 0c67 bfbf
000004b0: a0c8 2bc1 f654 aebf 8694 d9ff 84a3 7dbf
000004c0: 5a50 bfdb 219d 9c3f eff7 af9f 0a27 a83f
000004d0: ca19 f21e 53b6 ab3f 3dd9 c062 7cb4 aa3f
000004e0: fcba 3980 71b5 a83f 0a07 4fdc 8289 a83f
000004f0: 2608 5941 cc58 a63f 45a8 75c2 1b37 a63f
00000500: e7cd 4b3f 8ded a63f e0bd a87f 3e01 a73f
00000510: a9f7 70a3 aa04 a73f 6050 71df 149d a63f
00000520: 3286 83ce b579 a73f 969e 6f5f 9578 a73f
00000530: 1f0d 4c13 5be6 a33f fd74 34f5 571b a13f
00000540: 3c93 339d 681a a13f 0b7b af61 53d5 a03f
00000550: 9d5f e89f 4dff a13f f1fe ec05 6ef6 a23f
00000560: 3998 2200 0505 a23f 741b 23c5 3fed 9d3f
00000570: da71 0f7e ec72 9b3f 2239 1a39 6bed 9c3f
00000580: fa81 013d 3a99 9b3f ca8b 7740 0c86 963f
00000590: 7251 74f7 1578 943f 0f4b 593f 634a 933f
000005a0: e4ac ccb7 e5f3 913f d5dd 9dfe b1e5 923f
000005b0: b078 f9bc 33f1 943f a943 a177 c0fb 943f
000005c0: 9806 cce3 3350 963f 5171 81a3 9bff 963f
000005d0: d64e 9cf5 8cf1 973f 7920 8c81 7063 9b3f
000005e0: c782 bde7 923a 9f3f db61 375f 3192 a03f
000005f0: 1180 8202 24d7 9d3f 7981 2c20 c148 9e3f
00000600: aa55 2b7b 611e 9f3f 181d 0f04 685e a03f
00000610: d5d5 5736 f780 a23f a3da bc7e 7c9a a43f
00000620: 1c0e 7b3c 5507 a63f c15d e9c1 4cf7 a63f
00000630: 133b 8522 fedd a63f 455c e2c3 4ad7 a63f
00000640: 068f 7b62 b97f a73f 28bc a17c 8327 a73f
00000650: a4ad 0806 29db a63f 93ee 77c0 267f a63f
00000660: c9cc a7bc 8d35 a53f dc33 391f 18ec a23f
00000670: b63e d0fd e156 a23f af5f 6eff e3e7 a13f
00000680: 3a10 1df8 d48e 9f3f f473 a87e 5c1d 9d3f
00000690: ab58 c2fb 2624 a03f dd42 ef3e db2b a03f
000006a0: b34f dcfe 50c1 9d3f 7cb9 8480 d209 9a3f
000006b0: e92a 6b08 7fa0 953f 60da 5604 16f8 903f
000006c0: 3d93 7201 acb1 8f3f aee2 9486 08a2 923f
000006d0: ff72 3a84 8236 933f bc32 8ee2 3311 923f
000006e0: 7820 e539 b8fa 933f 3be5 e0b8 dde2 933f
000006f0: 904b 6807 66c9 8f3f 0004 6580 2f78 913f
00000700: bcbe 4141 4a68 943f 1f2a cfb4 ab2d 943f
00000710: 06f4 8081 39dd 923f d6d3 b1c4 afca 923f
00000720: dcad e3fa a2fd 923f 739a d5a0 07f5 973f
00000730: 1531 15b0 5737 9a3f f9b2 d819 eb8a 993f
00000740: 4a1d f11f 63d2 9b3f a475 b960 27f7 9e3f
00000750: 56f9 2984 913b a13f 385c 7ebc 64d7 a23f
00000760: 4eed 0c53 5bea a03f d02a d07a 3a4f a13f
00000770: fde2 e240 f9cf a13f e7f6 370d f6cb a03f
00000780: a5ea 6d1f 31fb a13f 2d3b aba2 cbdd a23f
00000790: fb7c a33c 44ba a33f 67ec 5860 20ec a43f
000007a0: a613 2243 3b65 a53f 73d7 0880 cefd a33f
000007b0: 4c16 0ebc 0e60 a33f 53a8 1375 8b65 a33f
000007c0: 4555 e6c2 5559 a53f a8c1 9736 da79 a63f
000007d0: ffa1 e2fd 8d7d a63f ca84 0431 75fc a63f
000007e0: 3d77 0636 7c45 a63f 8294 547d 1952 a43f
000007f0: 0a6a 95ec 1a25 a23f 3790 89ef 1f66 a23f
0.035837524 0.0355618 0.03547206 0.03512434 0.03630499 0.03280596 0.031433508 0.02809878
0.023674762 0.024744347 0.02729242 0.025774542 0.02207309 0.019246072 0.015760727 0.016809419
0.017556503 0.014745019 0.011466712 0.010740735 0.011650495 0.013832301 0.013921887 0.0120267905
0.010960953 0.013342537 0.016266216 0.01674093 0.012370959 0.010964714 0.011421723 0.010146679
0.013787305 0.021501647 0.026499432 0.030448336 0.034571655 0.036462467 0.040671695 0.034108825
0.020491764 0.0050571077 -0.009547323 -0.02771119 -0.053158447 -0.08268438 -0.10675097 -0.12557457
-0.13754724 -0.14235823 -0.14216296 -0.12778667 -0.113627076 -0.100996904 -0.07077502 -0.034371268
-0.009919273 0.007695691 0.024735779 0.0353499 0.03799417 0.034488883 0.03287606 0.03835616
0.03938087 0.032893747 0.02948434 0.030659327 0.034778565 0.04022526 0.04182202 0.043137744
0.038613733 0.029216768 0.012664156 -0.01916027 -0.063760385 -0.12163873 -0.17249632 -0.20375374
-0.2227972 -0.23111442 -0.23603767 -0.23817894 -0.23599513 -0.22738951 -0.2118801 -0.1872251
-0.15586048 -0.1106439 -0.060070403 -0.020584127 0.0055424366 0.025529988 0.03399614 0.037972156
0.038769063 0.034514192 0.029666487 0.026006166 0.022016682 0.018977566 0.016790312 0.014325907
0.01444594 0.014331298 0.010618469 0.010281971 0.01039531 0.009264691 0.009942686 0.012286581
0.011752997 0.010948095 0.01327751 0.014107 0.0104788095 0.0070237163 0.006873681 0.0055898204
0.0078666005 0.013926726 0.015820928 0.01575934 0.01723662 0.020973274 0.023657274 0.024638515
0.023149408 0.024858894 0.026396487 0.027474327 0.032739785 0.037712757 0.039675362 0.036129642
0.027041988 0.010701686 -0.027654514 -0.092019394 -0.15769532 -0.20385548 -0.22839284 -0.24555735
-0.25087482 -0.24838519 -0.23782954 -0.2120632 -0.17406714 -0.122666135 -0.059241973 -0.0072360225
0.027943162 0.047172863 0.054125402 0.052158248 0.048259303 0.047924127 0.043646224 0.043389194
0.044781126 0.044931367 0.044957478 0.044167187 0.04585045 0.045841854 0.03886685 0.03341174
0.033404607 0.032877546 0.035150934 0.03703636 0.035194546 0.029225346 0.026805587 0.028249431
0.026951704 0.021995727 0.019989341 0.018838454 0.017531957 0.018454343 0.020451363 0.020491607
0.021790324 0.022459442 0.02338238 0.026746519 0.030496879 0.032365363 0.029141009 0.029574411
0.030389331 0.031970263 0.03614018 0.040241137 0.043024696 0.044855498 0.04466242 0.044611298
0.045896333 0.04522334 0.04464081 0.043938838 0.041424207 0.036957506 0.035819113 0.03497231
0.030818298 0.028432317 0.03152582 0.031584598 0.029057756 0.025428094 0.021120057 0.016571373
0.015475601 0.018196233 0.018762626 0.017643748 0.019511107 0.019420113 0.015520856 0.017060034
0.019929085 0.01970547 0.01842203 0.018351313 0.018545672 0.023395652 0.02560174 0.024943994
0.027169751 0.030239692 0.033657596 0.036799572 0.033038 0.03380759 0.034789838 0.0328061
0.035119567 0.036848415 0.038530476 0.040864002 0.04178796 0.039045766 0.037842236 0.0378841
0.041697197 0.04389841 0.043926656 0.04489485 0.04349888 0.03968887 0.03543934 0.0359354
