mumax3/Stray field resources/stray_field_v10_FeCo_5_5.out/B_demag_125mT_10K_FeCo_5_5_layer2.npy (npy, 524416 bytes, 1 tensors)

array f8 [256, 256]
0.02378283 0.020835247 0.023030277 0.022967944 0.0221664 0.02551245 0.029595645 0.027475532
0.025829554 0.027706288 0.028703194 0.028732885 0.026708081 0.025504157 0.024543226 0.028163683
0.03109561 0.036858432 0.04184538 0.044888474 0.04990422 0.050747138 0.045948077 0.040281653
0.03160828 0.026898786 0.020491714 0.008579303 -0.005250193 -0.023256093 -0.03630495 -0.048389107
-0.052192315 -0.05702282 -0.057465833 -0.05500197 -0.044735 -0.031596273 -0.01437939 -0.0006400384
0.00949522 0.020578155 0.03741949 0.041692153 0.038210534 0.03768556 0.040925153 0.037773084
0.03396726 0.03305259 0.032450773 0.032207984 0.0303349 0.029488236 0.028150773 0.029412046
0.029286113 0.026707062 0.022624776 0.02352859 0.026328886 0.025524886 0.024059549 0.022609351
0.023785265 0.026022285 0.026656888 0.027708387 0.029501325 0.03279361 0.036102872 0.038758326
0.0424526 0.043822393 0.040127054 0.037504543 0.027644306 0.010715449 -0.009557307 -0.035514273
-0.0663378 -0.10744225 -0.14215237 -0.16521223 -0.18173495 -0.19049823 -0.19420609 -0.19828047
-0.19933158 -0.20406437 -0.20978539 -0.20860761 -0.20684397 -0.20275643 -0.19412595 -0.19106187
-0.19040783 -0.18819916 -0.17793709 -0.16031927 -0.14401937 -0.12221025 -0.099282116 -0.07054951
-0.038478546 -0.014664848 0.0044313967 0.018312596 0.02833983 0.033155486 0.037439443 0.041887682
0.041413464 0.03788836 0.033737794 0.032100096 0.03242033 0.034443147 0.036367312 0.03725565
0.040431086 0.042268187 0.042724103 0.04398374 0.045104083 0.04564012 0.04752174 0.046778083
0.035980634 0.025603078 0.0150007345 -0.0026034098 -0.018676644 -0.03677561 -0.062054537 -0.08595599
-0.106651306 -0.119877405 -0.13340487 -0.13279958 -0.13743325 -0.14502011 -0.13418704 -0.11922401
-0.10300475 -0.08457873 -0.054209113 -0.023743829 0.0022514854 0.02864952 0.04245351 0.05415012
0.06293896 0.07484894 0.081039764 0.080522805 0.08179322 0.07802106 0.07444562 0.06878168
0.05859314 0.05065986 0.04450344 0.0327128 0.021993553 0.011800537 0.005236136 0.010204941
0.012290039 0.015255174 0.017430166 0.015116451 0.012903409 0.02193404 0.032091618 0.035935614
0.03510384 0.035849053 0.034658708 0.032009494 0.031788487 0.030549705 0.028871803 0.022680435
0.021100719 0.021427019 0.020062141 0.01906363 0.017219504 0.013292057 0.011740554 0.01647758
0.017950991 0.016229507 0.015703343 0.017827531 0.018992381 0.020640621 0.020256042 0.022519317
0.023903582 0.022179214 0.023817621 0.030160893 0.03263861 0.03579396 0.039694935 0.039828032
0.04008762 0.03995288 0.04212845 0.04456626 0.046116024 0.049255036 0.050121114 0.048563913
0.04383547 0.036748268 0.032252118 0.029988937 0.026452817 0.023428626 0.022610478 0.020591065
0.017403007 0.01633948 0.01807756 0.022884592 0.026509851 0.029684398 0.03586581 0.042750336
0.045594186 0.04552031 0.042935815 0.040599506 0.040401813 0.041052602 0.039962992 0.036837313
0.031628378 0.026327288 0.024261462 0.02276874 0.02117861 0.022235742 0.022161322 0.024215609
0.023663085 0.022152029 0.022260197 0.023779418 0.021934424 0.022890441 0.027149975 0.02755107
00000000: f7ad 39b4 865a 983f 1057 e0c1 d555 953f
00000010: d39b 21ba 3f95 973f 9b6e 58a1 e884 973f
00000020: 57bc 47ec c9b2 963f 1a37 9089 ef1f 9a3f
00000030: 5f1f 841d 524e 9e3f 8953 85bd 8b22 9c3f
00000040: 8712 cd06 1073 9a3f e90a 6a83 095f 9c3f
00000050: c43d 15be 5e64 9d3f d433 9445 276c 9d3f
00000060: 4255 bcf9 5c59 9b3f a87f e800 c31d 9a3f
00000070: 7889 0804 dc21 993f 31fd adc5 f0d6 9c3f
00000080: 9126 ff0f 87d7 9f3f 982e 0bc0 1bdf a23f
00000090: 1a69 2df5 c16c a53f c63d 983f 9ffb a63f
000000a0: e82e aac1 0b8d a93f e4b4 2664 87fb a93f
000000b0: dbe4 0ea0 8186 a73f 7413 87fc cb9f a43f
000000c0: caff c3e1 f52e a03f ae3b b0f8 5a8b 9b3f
000000d0: b23d e0a5 c7fb 943f 4ab5 758e 0692 813f
000000e0: 3017 b9f3 3981 75bf 668f 78fb 71d0 97bf
000000f0: 10a7 ddf9 8f96 a2bf e264 1800 75c6 a8bf
00000100: 7218 0e7c f3b8 aabf dc27 0d56 1832 adbf
00000110: e5aa be62 296c adbf 662c bbdc 3729 acbf
00000120: 641e f983 81e7 a6bf 0fc5 6bfe 622d a0bf
00000130: 859b 4a0e f172 8dbf 78f6 82ff 07f9 44bf
00000140: 7154 f2da 3a72 833f 14b5 f29a 7012 953f
00000150: 40e5 90bb a528 a33f 3708 4583 ac58 a53f
00000160: 750f c9c3 5490 a33f 0f80 768f 854b a33f
00000170: 1106 7043 24f4 a43f 4eeb e560 fe56 a33f
00000180: 9861 ab1d 2864 a13f b939 32e2 44ec a03f
00000190: 92a3 8741 639d a03f 5d72 e69b 907d a03f
000001a0: 51b0 b5ad 1c10 9f3f 5069 f204 2a32 9e3f
000001b0: db87 9165 8ed3 9c3f f9ba b6fe 301e 9e3f
000001c0: 8f72 3fc6 2dfd 9d3f 2ff0 7297 1859 9b3f
000001d0: 3c4f ff03 f32a 973f 4bb2 48f2 e017 983f
000001e0: 118e 3da1 f5f5 9a3f 99a0 6a1a 3223 9a3f
000001f0: 8c2f 7200 11a3 983f 30e0 83dc e726 973f
00000200: 20ef 341d 2a5b 983f 3634 2bfc 95a5 9a3f
00000210: 434a b178 f14b 9b3f 60ab f55f 965f 9c3f
00000220: f931 4168 9835 9e3f ac80 eff4 52ca a03f
00000230: 9737 105d 137c a23f 0744 3c9d 21d8 a33f
00000240: 97a5 42e1 58bc a53f 6ef0 8881 e36f a63f
00000250: 79ca 3a81 888b a43f 98d9 45a3 cb33 a33f
00000260: fe30 c3f8 c94e 9c3f c7b9 2238 fbf1 853f
00000270: b7cc 0508 c892 83bf c205 2742 ed2e a2bf
00000280: 2814 7d99 83fb b0bf 7b6a f5d5 5581 bbbf
00000290: 4775 1982 0c32 c2bf c5e6 5fa2 ac25 c5bf
000002a0: 1e25 6541 1743 c7bf 98df e5f9 3e62 c8bf
000002b0: c8f4 9dc2 bedb c8bf f6f1 0a23 4161 c9bf
000002c0: 227b 947c b283 c9bf 58e4 b601 c81e cabf
000002d0: f142 9d66 3fda cabf cec7 5277 a7b3 cabf
000002e0: d02c 43fb dc79 cabf e0ac f335 ecf3 c9bf
000002f0: fc07 477f 1ed9 c8bf 31d0 9421 b774 c8bf
00000300: 464c 60a5 485f c8bf 83d6 aafa e816 c8bf
00000310: f3cf 257f a4c6 c6bf b0c7 c882 5785 c4bf
00000320: adfc 110a 3a6f c2bf 7369 fcc2 2b49 bfbf
00000330: a634 4c81 8d6a b9bf 31e6 325e 880f b2bf
00000340: d0d3 55c1 75b3 a3bf 7b8a 7c94 9a08 8ebf
00000350: d802 6ffe a726 723f 9c0e b383 89c0 923f
00000360: cdc7 18cc 1d05 9d3f f620 1b80 c1f9 a03f
00000370: dee9 873e 432b a33f bb2a 9760 4d72 a53f
00000380: 2ef7 fc42 2534 a53f e7b9 3266 1a66 a33f
00000390: d205 bd83 1446 a13f a573 097d 6c6f a03f
000003a0: 90ab 26c2 6599 a03f 6765 df3b 88a2 a13f
000003b0: 52ea 5d7f bc9e a23f b4b4 ae2c 2c13 a33f
000003c0: 0f39 3920 62b3 a43f 4e05 a701 2da4 a53f
000003d0: 5699 4502 efdf a53f 1927 b669 0985 a63f
000003e0: fe58 cde2 e117 a73f 172f 924d 245e a73f
000003f0: b34b 4cfe c454 a83f 4424 4f01 4cf3 a73f
00000400: 4681 a3bc 0d6c a23f 706c bf7a b137 9a3f
00000410: df71 bf80 b4b8 8e3f 65e9 5efe be53 65bf
00000420: da54 b75c f81f 93bf 561c 7bb4 40d4 a2bf
00000430: 1583 f7bd 9cc5 afbf 61ff f135 3601 b6bf
00000440: 0c7f 58ff 7f4d bbbf e11c 011e 49b0 bebf
00000450: 0c79 e328 6913 c1bf 73e2 829e 93ff c0bf
00000460: e205 11a9 6997 c1bf 632d dbda 0490 c2bf
00000470: ef6b 2c7a 0a2d c1bf 0515 d9f7 7685 bebf
00000480: f228 95f0 845e babf dd86 499f f3a6 b5bf
00000490: a4d8 f5fe 4bc1 abbf 32b3 2564 4d50 98bf
000004a0: 392c 2205 b571 623f e5cd c8bd 4c56 9d3f
000004b0: 34cf 196a 77bc a53f 75ee f284 90b9 ab3f
000004c0: e920 d886 c41c b03f 4ab5 70d5 4c29 b33f
000004d0: 0f39 0ea0 05bf b43f b2a3 0e7e 249d b43f
000004e0: 903d ef84 66f0 b43f b268 192d 30f9 b33f
000004f0: 59fe 3a3f de0e b33f cbf7 291a ad9b b13f
00000500: 6ad0 2388 ebff ad3f 3002 d7d3 16f0 a93f
00000510: 2710 b8a6 27c9 a63f b238 526c bbbf a03f
00000520: 506e 6e5b 7a85 963f e001 ec43 e12a 883f
00000530: 3ddd 098e 7c72 753f f324 d2fe 53e6 843f
00000540: 6f90 921c 852b 893f 0af8 65cb 1a3e 8f3f
00000550: 7943 bca3 36d9 913f 2ea6 69b5 5ff5 8e3f
00000560: 8d98 4b3d 1a6d 8a3f 636a e081 e075 963f
00000570: 8a4a 9203 506e a03f 3f8a c81d 2766 a23f
00000580: 302d 8769 21f9 a13f 2584 749c ce5a a23f
00000590: db62 c342 c9be a13f c473 c863 8c63 a03f
000005a0: fbcf 1ba0 9446 a03f a581 82ff 6b48 9f3f
000005b0: 986e a5e6 9190 9d3f 3012 563a 8a39 973f
000005c0: 63bc 1b48 6d9b 953f 224f 6ce7 f6f0 953f
000005d0: 9653 ee7d 2b8b 943f 417a 928d 6a85 933f
000005e0: 3124 225a fda1 913f b27d e4b0 dd38 8b3f
000005f0: 9841 bc7b 6e0b 883f e26f deac 7fdf 903f
00000600: c868 1a9d be61 923f b749 2ec7 779e 903f
00000610: c6d1 7d82 8914 903f fe25 745a 6141 923f
00000620: 9f9b 121d bd72 933f e911 a8a0 d022 953f
00000630: 47e0 bef7 ffbd 943f 854b 2cc8 4d0f 973f
00000640: 06fd c93b 2e7a 983f 9fba 1fdb 25b6 963f
00000650: edd8 0d7d a563 983f 5a6e 3644 7fe2 9e3f
00000660: 5ee4 1205 02b6 a03f 4e4c 30ff 9553 a23f
00000670: 02a0 48ff e452 a43f 86de cefd 5664 a43f
00000680: 41bb bf51 5d86 a43f 4547 f631 b474 a43f
00000690: 125c f635 dc91 a53f 15fa 688a 63d1 a63f
000006a0: 1b98 cdfd 849c a73f 0c0d 91c1 f437 a93f
000006b0: 452c f082 79a9 a93f a69a 3384 5edd a83f
000006c0: 520d 1c4c 9a71 a63f e441 7d42 abd0 a23f
000006d0: a9ce 1280 5983 a03f 5291 a07e 6bb5 9e3f
000006e0: fbb8 9b7f 7216 9b3f ae42 d779 acfd 973f
000006f0: 334b 3a7e 3327 973f 6a2a 0ffb d215 953f
00000700: 8911 ab07 18d2 913f eb40 eff0 4bbb 903f
00000710: f245 f783 ec82 923f 75a3 e3f8 0e6f 973f
00000720: d86f 44fc 6525 9b3f 601f 723a 9665 9e3f
00000730: a035 fde1 005d a23f 70a9 063e 5fe3 a53f
00000740: a3f6 8303 1f58 a73f afef 8125 704e a73f
00000750: 1214 81e2 aefb a53f 47ec 015d 75c9 a43f
00000760: 8f76 11e3 8baf a43f a9eb 02be d804 a53f
00000770: 4470 617f 0776 a43f 4a0c 371d 57dc a23f
00000780: a663 4542 9831 a03f ef3a cf63 8af5 9a3f
00000790: dd61 5f27 ffd7 983f ed3b af46 b050 973f
000007a0: 4488 4c75 d8af 953f 9fe8 c462 f7c4 963f
000007b0: 658d e724 75b1 963f 68b5 d402 facb 983f
000007c0: 1835 cac0 223b 983f 1b53 6180 05af 963f
000007d0: 7556 7888 60cb 963f d1fb 82ba a159 983f
000007e0: 9e46 f246 fa75 963f 95ae f17d 9770 973f
000007f0: 924f d9fa 33cd 9b3f 9dae 7a02 5936 9c3f
