mumax3/Stray field resources/stray_field_v8_FeCo_2_6.out/B_demag_25mT_10K_FeCo_2_6_layer2.npy (npy, 524416 bytes, 1 tensors)

array f8 [256, 256]
0.020083852 0.022831507 0.030869432 0.038058512 0.039513007 0.037007462 0.032363314 0.01774213
-0.009037822 -0.047856186 -0.09223136 -0.1309542 -0.16006957 -0.1729779 -0.1787045 -0.1753535
-0.1707776 -0.16256806 -0.15985009 -0.15919903 -0.1586748 -0.16278422 -0.16719563 -0.17362979
-0.17376882 -0.1699967 -0.15705222 -0.13640337 -0.10302547 -0.05869122 -0.018352157 0.012352672
0.031970393 0.045101717 0.04266726 0.035935894 0.0322324 0.03060619 0.023232697 0.016367571
0.013222257 0.010915535 0.010049354 0.007984785 0.0065172156 0.0087872315 0.009697679 0.009076746
0.008740597 0.0046170466 0.0043724366 0.0069981515 0.005740486 0.0075495318 0.008009037 0.0061154515
0.00800256 0.0062727137 0.002595204 0.003947681 0.008068201 0.009097977 0.007427079 0.0070236064
0.008105772 0.009552104 0.012812034 0.013594534 0.011356699 0.012979171 0.017175978 0.020193288
0.025627522 0.031088239 0.03479834 0.03847584 0.043591622 0.04364097 0.03129407 0.012162653
-0.01601011 -0.049770985 -0.08812855 -0.11904228 -0.14313859 -0.1564723 -0.16263434 -0.16790447
-0.17387569 -0.17217372 -0.1679187 -0.16488984 -0.15699288 -0.14755401 -0.13179988 -0.10302523
-0.07164433 -0.03478643 -0.0021629431 0.025351733 0.038512655 0.046642955 0.04633321 0.038996845
0.03548263 0.0329191 0.027232243 0.021351218 0.018481253 0.014655097 0.010058265 0.0079500135
0.005861915 0.005602576 0.0070939464 0.0053609433 0.0039104717 0.0050377147 0.005258735 0.005521287
0.006844098 0.008335962 0.007456047 0.007079559 0.007700253 0.0061232327 0.00625118 0.0053675533
0.005195614 0.00976035 0.012573212 0.011768684 0.011481768 0.009251583 0.0051366724 0.0065809777
0.005649359 0.0020759217 0.0039030164 0.0057514906 0.0070315152 0.0070143715 0.0059141815 0.008630119
0.010826558 0.009467855 0.009477779 0.011438891 0.013734654 0.014730729 0.0142122805 0.01227387
0.014879443 0.016571388 0.018330194 0.021054983 0.024675645 0.02611416 0.026799222 0.031426493
0.0363856 0.041924857 0.04659367 0.046509996 0.044335883 0.042162374 0.03504455 0.024086816
0.011477165 0.0031858708 -0.00052683987 -0.002503783 -0.0025466671 0.0039897324 0.012772113 0.02262246
0.028957449 0.036064 0.03688229 0.03932026 0.04217138 0.043144666 0.04016532 0.037512377
0.029119764 0.02507528 0.025099784 0.021820936 0.018836569 0.020704253 0.020714289 0.017925292
0.01569737 0.013475031 0.010522938 0.010446336 0.012889764 0.01531499 0.0131780375 0.012809036
0.008604946 0.007694455 0.012461038 0.010054373 0.007672403 0.009488365 0.01103575 0.011280167
0.010911811 0.011254534 0.012236718 0.013195429 0.016799353 0.016767025 0.012704633 0.010529742
0.010416523 0.010599837 0.008573249 0.0069091693 0.006404847 0.008104995 0.009213902 0.0062437057
0.007749982 0.008775697 0.009450184 0.011214372 0.008780107 0.010036301 0.013321014 0.01205714
0.009709729 0.0075013814 0.0068471152 0.008254857 0.0066748275 0.004634776 0.0058027133 0.007809272
0.0071165436 0.008519399 0.01020109 0.009900439 0.008874488 0.0070460783 0.0050282744 0.0048786076
0.0074816695 0.009668243 0.010702968 0.008703139 0.011638166 0.016036458 0.018062698 0.019269323
00000000: 0c21 127e dc90 943f b898 887f 2461 973f
00000010: b75c 8b83 3c9c 9f3f 72b4 bfc0 677c a33f
00000020: fac9 a981 0c3b a43f f9f4 fe5d a4f2 a23f
00000030: 4bbb 709e ec91 a03f b90d 7230 fe2a 923f
00000040: 6f28 56ef 6b82 82bf a505 9023 9b80 a8bf
00000050: 2198 dd72 799c b7bf 4b0d 2373 1bc3 c0bf
00000060: 5c0d 1ee0 287d c4bf 1723 b7cb 2324 c6bf
00000070: b6f2 92ff c9df c6bf 029c dec5 fb71 c6bf
00000080: ddd6 7157 0adc c5bf 437e 89ba 07cf c4bf
00000090: 2205 68be f775 c4bf 83d4 b341 a260 c4bf
000000a0: 0084 59b2 744f c4bf 2739 9a02 1dd6 c4bf
000000b0: bb2a 7199 aa66 c5bf 0ca7 d43e 8039 c6bf
000000c0: 1675 7b83 0e3e c6bf 30c6 76ad 73c2 c5bf
000000d0: 6904 5582 491a c4bf 7f6a 9b66 aa75 c1bf
000000e0: 6316 4e90 e05f babf fab7 ec8c c60c aebf
000000f0: 3615 8168 e8ca 92bf fbd2 1092 5b4c 893f
00000100: 0a23 c060 6c5e a03f 3253 047f 9217 a73f
00000110: 02af 9eac 7bd8 a53f 350d f782 3066 a23f
00000120: 1941 bedf c380 a03f a6af 6ba4 3a57 9f3f
00000130: e962 40e7 4fca 973f 09cc a318 a9c2 903f
00000140: 778a 274b 4514 8b3f ce2a bf4e e25a 863f
00000150: 1a19 3576 c194 843f c354 86b3 535a 803f
00000160: 2fc5 cebd cbb1 7a3f 24ad 513f 0aff 813f
00000170: 5883 3771 60dc 833f 52f4 ca39 d496 823f
00000180: d6a1 1912 97e6 813f 37f0 6a02 53e9 723f
00000190: 1e9d 3603 d5e8 713f 4702 33fd 17aa 7c3f
000001a0: 8d5d 21fa 5583 773f b6d5 e502 42ec 7e3f
000001b0: 424e e6bf 0a67 803f 579a 1503 840c 793f
000001c0: 05cd df6b a563 803f cec1 2dc3 6ab1 793f
000001d0: d76c ce89 8942 653f 9601 a48c 712b 703f
000001e0: 22df 759b 0f86 803f ace8 65cd f5a1 823f
000001f0: 3c93 8e56 db6b 7e3f 088d 9bfc c8c4 7c3f
00000200: 1acf 304d c299 803f 1dce 4db2 0d90 833f
00000210: 10b1 3318 323d 8a3f c591 7977 73d7 8b3f
00000220: 7137 5d56 2e42 873f f924 cbd7 d294 8a3f
00000230: f6b2 255f 9496 913f 471e 3c9e 8cad 943f
00000240: 4c57 78e3 193e 9a3f 3b51 2e67 98d5 9f3f
00000250: fa9a 8288 16d1 a13f dae5 f8f4 1ab3 a33f
00000260: 703b bd1d a451 a63f e0d8 d4f5 1b58 a63f
00000270: 47df 6abe c605 a03f 53d6 f0a6 bbe8 883f
00000280: 2ae4 6b4b f464 90bf d1ba ba21 957b a9bf
00000290: e209 18b8 978f b6bf 64f7 700b 8e79 bebf
000002a0: 123b 6c85 5d52 c2bf 646d 9dc9 4807 c4bf
000002b0: 74d6 c0b9 33d1 c4bf 8548 c0c7 e47d c5bf
000002c0: 9f49 0f01 8f41 c6bf 81b9 50d8 c909 c6bf
000002d0: d183 7126 5c7e c5bf e60f 1f3b 1c1b c5bf
000002e0: 6805 a7ba 5718 c4bf f4fc abbf 0ce3 c2bf
000002f0: a1bd 1b87 d1de c0bf fa4b 8389 dc5f babf
00000300: 8e38 4b66 4857 b2bf bba1 63e6 86cf a1bf
00000310: 2c5f 153c 05b8 61bf 1417 8700 cef5 993f
00000320: 0f0d 6a43 eeb7 a33f 5aaa a0dc 95e1 a73f
00000330: de5f 568b fcb8 a73f 2028 d8fb 64f7 a33f
00000340: a625 da7e c72a a23f 83d7 d3b3 c5da a03f
00000350: b3af 53e4 c4e2 9b3f 8fb8 28fc 17dd 953f
00000360: f77a e5e4 bfec 923f 3d7b add2 7d03 8e3f
00000370: da04 d679 6d99 843f 35cf e1bf 1848 803f
00000380: 858d 78d3 a902 783f e2fa 170b baf2 763f
00000390: 46ea 99bc 8a0e 7d3f 5b2a 6342 5bf5 753f
000003a0: dfd2 0341 6d04 703f df16 213e 6da2 743f
000003b0: 2f48 7eed 2e8a 753f 909d 8c31 7d9d 763f
000003c0: 2837 4a91 8e08 7c3f 4f97 5de1 7112 813f
000003d0: e8e8 5b60 3b8a 7e3f 716b 00a6 74ff 7c3f
000003e0: 8b12 e5ec 4c8a 7f3f d6a6 13c3 ac14 793f
000003f0: e621 955a d69a 793f 47eb 209e 49fc 753f
00000400: eff8 6603 ff47 753f cf4e 6100 3cfd 833f
00000410: 20f1 c3f2 fbbf 893f 8ff8 2c07 2e1a 883f
00000420: 3e69 7bd0 c083 873f 9cad 5e73 7ef2 823f
00000430: 5004 7eff 300a 753f 8b8d f4bf a7f4 7a3f
00000440: 28b2 5f42 c823 773f a714 f0f9 8501 613f
00000450: df69 66f9 37f9 6f3f e9e8 7b00 e08e 773f
00000460: fb89 34fd 13cd 7c3f 3aa6 1c03 1abb 7c3f
00000470: 7b71 0002 7839 783f 85b9 ecf6 aaac 813f
00000480: 8854 4e04 3c2c 863f f2c6 b4fc e163 833f
00000490: f5ed bff6 1569 833f dce5 faf5 456d 873f
000004a0: 59d7 030e ea20 8c3f e1ef 68fa 242b 8e3f
000004b0: 7cb6 97ff 531b 8d3f f47c f6f1 0a23 893f
000004c0: 44a4 8a08 1d79 8e3f fa8c 0906 17f8 903f
000004d0: 3a8f 097f 26c5 923f 0881 9cfd 6f8f 953f
000004e0: a97d 2181 9244 993f 6169 a69c abbd 9a3f
000004f0: cd66 3158 4171 9b3f 3071 531f 2217 a03f
00000500: 7d36 1724 22a1 a23f 2bb1 68c3 2c77 a53f
00000510: fb83 b321 20db a73f 68a1 837f 28d0 a73f
00000520: bd6e 0c5f 31b3 a63f f047 e782 4e96 a53f
00000530: d75a 4ef8 5bf1 a13f 6d67 f0db 36aa 983f
00000540: d93a 9b02 5781 873f 1725 a65c 4119 6a3f
00000550: 5d3f 8501 7443 41bf 2ab1 3d43 d082 64bf
00000560: 67c9 107d bfdc 64bf ff3b d8a2 8957 703f
00000570: ef26 16fd 4328 8a3f fd96 6b97 572a 973f
00000580: 09ec b881 05a7 9d3f 323a 2009 fb76 a23f
00000590: 5203 b44a 3ce2 a23f e159 8afd c821 a43f
000005a0: 73b8 dab3 7c97 a53f 1006 efc2 0e17 a63f
000005b0: 17b0 aa7f 8c90 a43f b208 d280 d234 a33f
000005c0: 325f 3048 92d1 9d3f b6f4 268e 55ad 993f
000005d0: fca9 aafd c1b3 993f dcd2 f339 3a58 963f
000005e0: a99e 4bbf e449 933f 1eaa 17e6 7e33 953f
000005f0: 3173 4267 2036 953f d51e a5fb 015b 923f
00000600: 3302 22ab f812 903f f122 a90b cc98 8b3f
00000610: 6bed 8ad4 0c8d 853f 803d dd7b e364 853f
00000620: d14e aad6 f265 8a3f 702f 8229 775d 8f3f
00000630: 3625 b440 16fd 8a3f a2cf b4b5 9f3b 8a3f
00000640: 9f13 3b4d 789f 813f 0d63 5e89 3884 7f3f
00000650: cc44 7935 2c85 893f fdf9 bb19 6397 843f
00000660: 47bc 77ff 186d 7f3f a1a9 f0ca a26e 833f
00000670: fad4 b14a e999 863f 7c0a de62 0e1a 873f
00000680: a4c0 147b ee58 863f 4a9a b1fb 9d0c 873f
00000690: ec86 f67c 900f 893f ebf0 1780 3406 8b3f
000006a0: 5b74 ea7e d933 913f f3d7 1a00 602b 913f
000006b0: 7403 f1f9 e204 8a3f bbd9 330c 9e90 853f
000006c0: 1af8 fb0c 4255 853f 003e 100a 5eb5 853f
000006d0: 3d8d 9a00 da8e 813f acf7 f902 ca4c 7c3f
000006e0: 0a05 6a06 f83b 7a3f de87 ac03 5a99 803f
000006f0: 2282 11fe bcde 823f 0bfb 98fc ff92 793f
00000700: 0de0 c0f3 71be 7f3f 31b6 ea1c fef8 813f
00000710: 50fb c439 9e5a 833f 10a5 e187 8ff7 863f
00000720: 8bf0 5c03 4efb 813f 11e1 8a84 e98d 843f
00000730: 9522 d63b 0c48 8b3f f3c8 ddef 69b1 883f
00000740: 406e 10c4 b1e2 833f f8eb 9abc c4b9 7e3f
00000750: dcf2 b17d b80b 7c3f 5e06 c926 ece7 803f
00000760: 5762 1a5d 1057 7b3f b831 8235 eafb 723f
00000770: d201 a0fd 95c4 773f d972 877d 9dfc 7f3f
00000780: e365 5ca0 3c26 7d3f 4a4e b160 9e72 813f
00000790: 72ea 771f 4fe4 843f 2ab2 c46d ae46 843f
000007a0: f877 d49d c92c 823f 571f d13d 59dc 7c3f
000007b0: 9b2c a721 8798 743f dfe6 7841 97fb 733f
000007c0: 35d5 265d 19a5 7e3f b44f f59b f1cc 833f
000007d0: 2cb7 3d0c 70eb 853f d134 058b f3d2 813f
000007e0: fde5 d732 c0d5 873f a75d 9d7a dc6b 903f
000007f0: 7306 c024 077f 923f 6f7c 6760 56bb 933f
